models/intel_image_cnn.pth (torch, 572655 bytes, 32 tensors)

convolution_layer_1.0.weight f4 [10, 3, 3, 3]
000000 d7 31 3f 3e ea 28 37 3e 73 29 1e be 10 c4 d5 3d
       0.18671356 0.17886701 -0.15445499 0.104377866
000010 da 15 90 bd 30 bf a4 bd 0f 8d 6e be f3 7e 6c bd
       -0.07035418 -0.080442786 -0.23295997 -0.057738256
000020 4d 01 95 3c 58 dc bd bb 4b db 9f 3e 16 cf 55 3c
       0.018189097 -0.0057940893 0.31221995 0.013049861
000030 49 56 3b 3e ba 5f 12 3e 70 d0 bd 3d c9 23 6d bd
       0.18294634 0.1429433 0.09268272 -0.057895456
000040 a1 93 c5 3d e8 d3 e1 bc 16 75 67 3c 1a 56 14 3e
       0.096472986 -0.027566865 0.014127037 0.1448597
000050 db 1e ba bd a4 5c 54 3d 5b 10 1a 3d c9 9c 26 3e
       -0.090879165 0.05184616 0.037613254 0.16270746
000060 73 10 ae bd f7 6c 0a bd 26 a7 9d bc 53 36 1f be
       -0.08499231 -0.033795323 -0.019244742 -0.15548067
000070 bc dc 2e 3d e9 fc 5d be 2d 83 3e 3e fa 3c 55 be
       0.042690977 -0.21678509 0.18604727 -0.20824042
000080 2e 39 15 3e 53 d3 2d bb c1 02 c2 bd 33 a9 c4 3d
       0.14572594 -0.0026523664 -0.094731815 0.09602585
000090 ce 11 5a bb 16 19 37 3e 7e f2 00 bc 62 a9 26 bd
       -0.0033274773 0.17880663 -0.007870315 -0.04068888
0000a0 9c 6f d1 3b fb 30 63 bd cf 3c 5e 3d bf 80 0d 3e
       0.0063914787 -0.055466633 0.05425721 0.13818644
0000b0 c4 a4 af 3d 23 17 c5 bd 06 72 13 3e 83 23 99 3c
       0.085763484 -0.096235536 0.14398965 0.018693691
0000c0 00 38 0d 3e e9 03 10 be 71 a0 37 be 5d ce 97 bd
       0.13790894 -0.14063992 -0.17932297 -0.074124075
0000d0 4d 71 23 be cc 2a 1b 3e 48 f9 a0 3d 44 5f 08 3e
       -0.1596119 0.15153044 0.078600466 0.13317591
0000e0 a1 c8 6f 3d 93 e2 ef 3c 5c 76 36 3e 4e da 03 be
       0.058540944 0.029282844 0.17818588 -0.12876245
0000f0 ee a5 06 3d 5a 4d d0 bd 38 35 4c 3d 19 50 7b bd
       0.032873087 -0.10171004 0.04985544 -0.061355684
000100 3a 54 b9 3d 90 cc 91 bd 88 96 35 3e b8 39 db bd
       0.09049268 -0.07119095 0.17733204 -0.10704368
000110 6d 22 08 be 80 51 e4 bd 55 ca 39 3e c3 d1 e6 3c
       -0.13294382 -0.111483574 0.1814359 0.028176194
000120 d1 8a 30 3e 8f e1 15 be e0 d1 7b be ba 5f 12 be
       0.17240454 -0.14636825 -0.2459178 -0.1429433
000130 41 07 0c be de 58 37 3d 2a 6a 94 3d 5c cd 29 3e
       -0.13674642 0.044762485 0.07246812 0.16582245
000140 27 ac 0f be a6 00 17 be 0c 08 d3 3d eb af 58 bd
       -0.14030515 -0.14746341 0.10304269 -0.052902143
000150 ce 73 34 3e a8 64 a7 bd f9 84 25 3e bb 77 fa bd
       0.17622301 -0.081734955 0.16164006 -0.12229868
000160 0a e2 ca bd fb f7 90 3d 09 1d 68 3b 03 dc 8d bd
       -0.09906395 0.070785485 0.0035417697 -0.069267295
000170 11 d3 03 3e ef 96 39 3e 57 2a 46 be 32 36 6f bd
       0.12873484 0.18123983 -0.19352089 -0.058401294
000180 ab cd 3f 3e 1a 4b bb bd ad 96 97 bd df a7 04 be
       0.187308 -0.09145184 -0.07401786 -0.12954663
000190 70 c2 74 bd 3e ec 29 3e 10 80 03 3e e5 66 ef bd
       -0.059755743 0.16594025 0.1284182 -0.116895474
0001a0 33 8d 1e 3e 62 c7 0b bd 29 ec d9 bd 80 6d 65 39
       0.1548355 -0.034125693 -0.10640747 0.00021879934
0001b0 ff f2 30 be bf 54 86 bd 42 13 89 3e 9c 9b 1b 3d
       -0.17280196 -0.06559133 0.26772505 0.037990198
0001c0 7f 94 c7 3d 69 c5 df bd eb 7e 09 be 70 b8 46 bd
       0.0974512 -0.10926325 -0.13427322 -0.048515737
0001d0 6b fd 7c 3d 8e fd 11 be 8f 7c b9 3c 80 32 11 3c
       0.061765116 -0.1425688 0.022642402 0.008862138
0001e0 d4 7f bb 3c 4c f5 f0 3b 98 22 d9 3d b9 82 19 be
       0.022888102 0.0073534604 0.10602301 -0.14991273
0001f0 ad 44 c2 bd 5a 2d 5c bd e1 9b d1 bd ce d1 da bd
       -0.09485755 -0.053754188 -0.1023481 -0.10684548
000200 1a 02 7a 3e 45 63 88 bd 01 a2 4d 3e f0 3c 08 3e
       0.24414864 -0.06659559 0.20081331 0.13304496
000210 50 33 71 be 4a 4c ea 3d d9 60 29 bd a0 af b9 bd
       -0.2355473 0.11440332 -0.041352127 -0.09066701
000220 6c b2 33 be 03 a4 4d be 34 e6 cc 3d 6e 3a 8b bc
       -0.17548531 -0.20082097 0.10004845 -0.016995635
000230 76 8c d4 3d de cc df bd cf db 46 3e b5 e7 04 be
       0.10378353 -0.10927747 0.19419788 -0.12979014
000240 e9 bb a9 bd 9b e6 d5 3a 1a 6e 95 3d 90 0d 31 3e
       -0.08287794 0.0016319336 0.07296391 0.1729033
000250 ed ef 3b 3e f5 f0 09 be 17 27 8a 3d 54 da 39 bd
       0.18353243 -0.13470824 0.06745737 -0.04537423
000260 c3 86 af bc 3e 98 55 be 7e 6e 0c 3e 71 9d 24 be
       -0.021426564 -0.20858857 0.13714024 -0.16075684
000270 e3 4f d7 3d 43 17 9d 3d f5 5b b2 3d a7 9e d4 bd
       0.10513284 0.076704524 0.08708946 -0.10381823
000280 51 5e 54 3e d8 8e 3c 3d 8e ce 08 3d 5f 21 e1 bd
       0.20739104 0.046034664 0.03340011 -0.10992693
000290 94 8a 1d 3e 20 5b 97 bd 78 4b 6a bd b5 9b 36 3e
       0.15384895 -0.073904276 -0.05720088 0.17832835
0002a0 30 4e 98 3d d8 aa 8b bd ec ab e2 bd a9 7c d0 bb
       0.07436788 -0.06819695 -0.11067948 -0.006362517
0002b0 8d 01 1b 3e fc 8a 3a ba e6 2f 1e be 70 7a 50 bd
       0.1513731 -0.0007116047 -0.1544796 -0.050898015
0002c0 d5 9b 17 be 17 03 ce 3d 1b 4a 3b 3e 0f 7a 4a be
       -0.14805539 0.10059183 0.18289988 -0.19773124
0002d0 67 04 63 3c aa 2e ce 3d 78 a9 23 3d f4 07 0c be
       0.01385603 0.10067494 0.03995654 -0.13674909
0002e0 b7 0f 9e 3d 1b ee 74 3d a1 4b 9e 3d 4b b6 04 bd
       0.07717841 0.059797388 0.07729269 -0.03240041
0002f0 c6 cb c7 bd f2 a5 96 39 f9 95 63 bc 43 eb d3 bd
       -0.097556636 0.00028733868 -0.013890737 -0.10347607
000300 f3 b0 f4 3d 2b f0 3e 3e 38 3e a0 3a 25 01 87 bd
       0.11947813 0.18646304 0.0012225574 -0.06592015
000310 15 61 99 3c 17 e4 1b bd e6 95 bb 3c 25 0b a8 3d
       0.01872305 -0.03805932 0.022898626 0.08205251
000320 fd bd 53 be 4d a1 99 bd eb 0c 43 3e f0 bc de 3d
       -0.20677944 -0.07501469 0.19047897 0.10875881
000330 6e 23 36 bd 62 50 d1 bd 5b 88 0a be 80 f0 3e be
       -0.044467382 -0.1022041 -0.13528578 -0.18646431
000340 71 2a d7 bc 4f 9c 54 3d ff a4 fe 3d 08 66 06 3e
       -0.026265355 0.05190688 0.12433814 0.1312486
000350 22 db f4 bd 3d a1 15 be db 40 c4 bb 3d 1f 3f 3e
       -0.11955859 -0.14612289 -0.0059891767 0.1866426
000360 be fe 14 3d 03 46 c2 bd 4b 48 9c 3d a8 57 f3 bd
       0.036375754 -0.0948601 0.07630976 -0.118819535
000370 3d 5d ab bd ee 5c f4 3d 9f c0 ae bd ec 99 36 bd
       -0.08367393 0.119317874 -0.08532833 -0.044580385
000380 cc c7 1d be 1b 6a 43 3e 37 a7 1d 3e 34 89 00 3e
       -0.15408248 0.19083445 0.15395819 0.12552339
000390 b2 9a 0c be 63 ad d8 bd a7 54 03 be 35 31 3e 3e
       -0.13730887 -0.10579946 -0.12825261 0.18573458
0003a0 ff 43 f8 3d 5a 46 74 3e 2e 9e 04 3e 32 5b e2 3c
       0.12122344 0.23854962 0.12950966 0.027631376
0003b0 3d 26 cf 3c 29 c2 4f be ad b6 0d be 5a 22 4e be
       0.025286788 -0.2028891 -0.13839217 -0.20130292
0003c0 48 de 83 3d 08 21 f3 bd 54 4f 47 bc 21 68 59 bc
       0.06438881 -0.118715346 -0.012164909 -0.013269455
0003d0 cf 08 5b 3d 73 94 d4 bd fc f7 8e bd f5 c5 fe 3d
       0.053475197 -0.10379877 -0.06980893 0.12440101
0003e0 c7 13 74 bd 61 9f 2a 3e a8 f2 81 bc a4 ce 23 be
       -0.059589174 0.1666236 -0.015862778 -0.15996796
0003f0 6c 71 20 3d 68 e4 f4 bc 30 84 88 bd 7e a0 1b be
       0.039170668 -0.029894069 -0.06665838 -0.15197942

convolution_layer_1.0.bias f4 [10]
000000 d1 fa 47 3d 59 c6 47 be 51 fb 4b 3e 74 0d 1e 3e
       0.04882318 -0.19509257 0.19920088 0.1543482
000010 e5 86 8d 3e 3d 1e 57 3b 6b e9 2d be 17 45 12 bc
       0.2764198 0.003282442 -0.16983573 -0.008927605
000020 a1 92 3b 3e d0 3e 7e be
       0.18317653 -0.24828649

convolution_layer_1.1.weight f4 [10]
000000 fa d9 58 3f 03 79 79 3f d9 4c 5d 3f 59 25 84 3f
       0.84707606 0.97450274 0.86445385 1.0323898
000010 51 a3 77 3f b5 91 89 3f 17 94 8c 3f 04 44 7b 3f
       0.96733576 1.0747591 1.0982693 0.9815066
000020 5d 0a 81 3f 9c 3e 87 3f
       1.0081288 1.0565982

convolution_layer_1.1.bias f4 [10]
000000 5c 82 50 be 21 5f 8a bd a4 ae d5 3b 45 7c b4 3e
       -0.20362228 -0.06756426 0.006521063 0.3525106
000010 0b 85 16 be fd 81 46 3e d5 07 4d 3e 76 dc 31 3e
       -0.1469919 0.19385524 0.20022519 0.17369255
000020 a4 78 c0 3b 1b 58 4e 3d
       0.0058737565 0.050376993

convolution_layer_1.1.running_mean f4 [10]
000000 31 7f e5 3e 46 05 51 be b2 c4 37 3e c6 48 1e 3e
       0.44823602 -0.20412168 0.17946127 0.15457448
000010 a7 0c 40 3e 0e 09 44 3d 38 a0 45 be 24 41 f0 bc
       0.18754826 0.047860198 -0.192994 -0.029327936
000020 56 99 06 3e 27 bb 9b be
       0.1314443 -0.30416223

convolution_layer_1.1.running_var f4 [10]
000000 2b 5a 6c 3d ad 6a 68 3b 45 0e f8 3b 42 51 c4 3b
       0.05770318 0.0035463974 0.0075700604 0.005991132
000010 4b 33 86 3c 89 58 37 3c f7 12 8e 3b d2 c6 af 3b
       0.01638188 0.011190542 0.004335757 0.0053642774
000020 96 75 34 3c 1c 37 1f 3c
       0.011014363 0.009717729

convolution_layer_1.3.weight f4 [10, 10, 3, 3]
000000 c7 12 af bd 36 55 a1 bd cb 62 11 b9 e2 fe d4 bd
       -0.08548503 -0.07877581 -0.00013865081 -0.104001775
000010 bd 37 98 bd 3b de 06 bd c5 28 20 be cc 08 1f 3d
       -0.07432506 -0.03292678 -0.15640552 0.03882675
000020 c1 be 91 3d c4 f7 dc bc e9 39 b6 3c 7f fe b3 3c
       0.071164615 -0.026973613 0.02224441 0.02197194
000030 97 f2 d3 bc a4 c4 a0 3b 77 d6 bb 3d 66 d3 b0 bd
       -0.025872512 0.004906254 0.09171765 -0.08634071
000040 7d 1a cb bc 41 fa 9e 3b 85 c1 64 bd f5 d6 8a bd
       -0.024792904 0.00485161 -0.055848617 -0.06779281
000050 fd 8f 8f 3c a1 06 12 3d 49 e5 82 bc fd 5a f5 bc
       0.017524714 0.035650853 -0.015978472 -0.029950613
000060 b8 2d d3 bb 0f d6 df 3d 3c d3 27 bd f8 bc 0a 3d
       -0.006444659 0.109295 -0.040972933 0.03387162
000070 7e 84 04 bd 78 a4 b5 bd aa 91 8f 3d 0c a2 8d 3d
       -0.032352917 -0.088692605 0.07010205 0.069156736
000080 da c7 00 be f0 ab fd 3b e9 94 1a 3e c3 c6 be 3c
       -0.12576237 0.007741444 0.15095867 0.023288136
000090 9d b4 c0 3d 9b 25 c0 3d be 0b 87 bd 78 fa a7 3c
       0.09409449 0.09382173 -0.065940365 0.020505175
0000a0 36 6b 7e bd 4a 3c 12 bd 92 65 b2 3d c1 31 72 3d
       -0.062113963 -0.035702027 0.08710779 0.05912948
0000b0 5c bf d4 bc 55 2b 13 be e2 42 2f be 34 11 3a be
       -0.025970154 -0.14371999 -0.17115358 -0.18170625
0000c0 02 77 63 bd ba 9e 5d bd 42 71 c0 3d eb 40 98 3c
       -0.055533417 -0.05410645 0.09396602 0.018585643
0000d0 e8 26 08 be 3b 49 60 bd ee 1a 09 3e 5b 31 8f 3a
       -0.13296092 -0.054757338 0.13389179 0.0010924743
0000e0 48 b8 0f 3d 8a 39 f5 3c db e0 b0 bd 32 66 a8 bd
       0.035087854 0.029934663 -0.08636638 -0.08222617
0000f0 40 ba 85 3c b0 e8 97 bc 09 9f 9f bd fb e7 0d be
       0.016324162 -0.018543571 -0.077940054 -0.13858025
000100 0e f1 33 be 72 dc 9d bd 2b c8 ae 3d 63 e3 b6 bd
       -0.17572424 -0.07708062 0.08534273 -0.08930089
000110 ed bf 6e bd b9 77 0e 3d 5f 27 60 bb b4 57 a9 3d
       -0.058288503 0.034782145 -0.0034203155 0.08268681
000120 46 da d6 3d 32 e6 e9 3d 83 f5 2c bd 09 37 38 bc
       0.10490851 0.114208594 -0.042226326 -0.01124359
000130 93 f3 4a 3d e1 e2 4b bd df 55 cd bd 77 36 32 3d
       0.049548697 -0.049776915 -0.10026144 0.043508973
000140 7b ae 80 bd 02 81 94 bd 09 87 2c be e4 fb 47 3c
       -0.062832795 -0.07251169 -0.16848387 0.0122060515
000150 54 96 9f 3d 57 13 49 bb 9f 5a 97 3c f8 7d dc bc
       0.07792345 -0.0030681693 0.018475829 -0.026915535
000160 fc e2 c2 bd e3 52 cd bc c7 3c b8 3d ea 61 48 3d
       -0.0951595 -0.025063938 0.08995967 0.048921503
000170 7c 27 74 bd 60 6c 78 bc c1 e3 b3 bd cc 53 3b bd
       -0.059607968 -0.015162557 -0.08783675 -0.04573421
000180 7c 37 8c 3b 22 58 54 3d 80 60 bd 3d 84 09 46 bd
       0.004279075 0.051841862 0.092469215 -0.04834892
000190 cf 30 81 3d c8 41 07 bd 0b 91 a9 bb e9 8f 42 3d
       0.063081376 -0.03302172 -0.005174761 0.047500525
0001a0 cc 6f d8 bc f8 d8 7e bb 0a 25 44 bd 82 4e ae bd
       -0.026420496 -0.0038886648 -0.047886886 -0.08511068
0001b0 8c 65 8a 3d 2d 0f ba bd d2 1c 38 bd 60 f3 82 bc
       0.0675765 -0.09084926 -0.04494936 -0.01598519
0001c0 d0 a6 a4 3c 85 c6 4e 3d 2b 66 5a 3d 1f 61 c1 bd
       0.020099074 0.05048229 0.05332009 -0.094423525
0001d0 9b 56 8f bd 2b f5 52 bc e8 f0 e6 3d cf f2 af bd
       -0.069989406 -0.012875835 0.11276418 -0.08591234
0001e0 0c fb 00 bd e4 ca fb 3d 0c 28 03 bd 26 ef 36 bd
       -0.031489417 0.12294558 -0.032020614 -0.044661663
0001f0 60 8b 9f 3d 22 f2 18 be 75 46 e1 bd e3 ab 07 3c
       0.077902555 -0.14936116 -0.10999767 0.008280727
000200 62 90 db bc f3 44 05 3c 7c 92 30 bc a3 99 a7 bc
       -0.026802246 0.008134115 -0.010777112 -0.020459002
000210 95 a9 ac 3d 7b 58 62 3d ca 9c af 3d b1 b7 66 bc
       0.08430783 0.055260163 0.08574827 -0.014081881
000220 d4 c2 af bd 5d c6 f7 3d 98 9a 83 bd d4 25 17 be
       -0.085820824 0.12098382 -0.06425971 -0.14760524
000230 f5 59 96 3d 69 52 89 bc 50 20 3b be 1e 16 ab 3d
       0.07341377 -0.016762929 -0.18274045 0.08353828
000240 ed 32 7c 3d e8 39 17 bd b8 06 13 bc 23 c0 08 bd
       0.061572004 -0.036920458 -0.00897377 -0.03338636
000250 2d 5b 84 bc 69 33 85 3c b3 57 ab 3d e3 30 45 bd
       -0.016156757 0.016259866 0.08366337 -0.048142325
000260 9e 7b 27 bd 22 c7 be 3d a3 fe 39 be 4c 76 06 3e
       -0.040889375 0.09315325 -0.18163542 0.13131064
000270 8c 54 32 bd 46 70 80 bd 86 ef 6a 3d 6d 50 4c 3d
       -0.04353766 -0.062714145 0.057357334 0.049881388
000280 c4 dd 14 be 53 d4 c8 3d ca 14 29 bc c9 a5 aa 3d
       -0.14537722 0.09806123 -0.010319898 0.08332402
000290 73 25 6e 3d e2 33 75 3b 9a fe e0 bc c0 f5 a0 3d
       0.058141183 0.0037414958 -0.027465153 0.07859373
0002a0 17 bc db 3d 28 84 83 bd b4 db 29 bc 89 7e 3e bc
       0.10729235 -0.06421691 -0.010367323 -0.011626848
0002b0 b6 ff 53 be 03 c8 00 3e ba 28 b4 3d ab ba 43 bd
       -0.20703015 0.12576298 0.087968305 -0.047785442
0002c0 5a 82 5b 3d b5 77 25 3e 38 a8 a5 bd 81 52 00 bb
       0.05359111 0.16158946 -0.08088726 -0.0019580426
0002d0 1d a7 9c bd 1a 33 3c 3b bd c2 09 3d 19 f2 b2 bd
       -0.07649062 0.0028716982 0.033632983 -0.08737583
0002e0 b6 0a 36 bc e9 c2 d4 bd 8e 30 05 be 30 56 c6 bd
       -0.011110952 -0.10388739 -0.13006803 -0.09684408
0002f0 f1 20 b9 3d d0 f4 6e 3d 9c 1d 1d 3e 2f b2 84 3d
       0.09039486 0.05833894 0.15343326 0.06479298
000300 3c e2 25 3e 21 99 d6 bc cd f0 cd bd 8c f9 c7 3c
       0.16199583 -0.026196064 -0.10055695 0.024410985
000310 7c c1 97 bd dd 70 00 bd 4c 8d b2 bd ce dd 4a 3c
       -0.07409951 -0.031357635 -0.087183565 0.012381984
000320 58 46 87 3d 45 91 88 bd 2a 82 2b bd 40 c9 6a bd
       0.06605214 -0.06668333 -0.04187218 -0.057320833
000330 1e ae b6 bd cd 36 08 be 3b 12 6e 3c 97 6f 74 bd
       -0.08919929 -0.13302155 0.014530714 -0.059676733
000340 fd 5e 0b 3e d5 73 be 3c c0 57 c7 3d ef 06 ca 3c
       0.13610454 0.023248592 0.09733534 0.02466151
000350 a8 69 1f bd 18 fb 46 bd dd 1f 51 bd b2 26 94 bb
       -0.03891912 -0.048579305 -0.051055778 -0.0045212144
000360 be 99 ce 3c cf 65 be 3d 5b d5 fe bb ac 86 a2 bd
       0.025219794 0.09296762 -0.007776899 -0.07935843
000370 f4 c1 56 bc 24 07 7f bc 9c 84 f3 bc 42 b2 cc 3d
       -0.0131077655 -0.015565667 -0.029726319 0.099949375
000380 9b f6 69 3d 11 ae dd 3c 82 8c e0 bd 32 dd 45 bd
       0.057119947 0.02706054 -0.109643 -0.04830665
000390 5d 3d 36 bd 0b ac 94 bd ad f7 b4 bc 08 cc 1e be
       -0.044492114 -0.07259377 -0.022090757 -0.15507519
0003a0 47 64 d4 3c c0 49 1a bd 51 8b 7f bc 96 52 47 be
       0.025926722 -0.03766799 -0.01559718 -0.19465098
0003b0 b1 f3 79 3d 9b eb 63 be db 9c ed 3d 9d 22 e3 3c
       0.061023418 -0.22257845 0.116021834 0.027726466
0003c0 5c f9 bb bc 9b 6c b7 3c 31 cd 71 bd d6 ba 2d 3d
       -0.022946052 0.022390654 -0.059033576 0.04241451
0003d0 a9 00 48 3d 5a d8 29 be 72 e3 80 3b 27 a3 fe bd
       0.048828755 -0.16586438 0.0039333636 -0.124334626
0003e0 f0 45 cc 3c 00 de 77 bd 24 56 9b ba c7 b5 bf bd
       0.024935693 -0.06051445 -0.0011851233 -0.09360843
0003f0 16 d7 48 bc 5d e4 ce 3d 0c ef d2 3d d4 29 96 3b
       -0.012258312 0.101021506 0.10299501 0.004582623

convolution_layer_1.3.bias f4 [10]
000000 60 31 c9 bb 29 ed 86 3c 1a d5 00 be eb 4d 27 be
       -0.006139919 0.016470509 -0.12581292 -0.16338317
000010 51 ec 8b 3c 82 e2 d6 bd 47 b6 2e 3d b7 68 4d be
       0.017080458 -0.10492422 0.042654302 -0.20059477
000020 ce f9 e2 39 62 2c b6 3d
       0.00043292198 0.08895184

convolution_layer_1.4.weight f4 [10]
000000 a9 b5 65 3f da f8 85 3f c6 a1 6f 3f 54 91 75 3f
       0.89730316 1.0466568 0.9360622 0.9592488
000010 a5 aa 7f 3f f2 fc 85 3f 08 58 76 3f 6f ec 82 3f
       0.9986976 1.0467818 0.96228075 1.0228404
000020 ef 8f 7b 3f 71 36 7e 3f
       0.982665 0.9930182

convolution_layer_1.4.bias f4 [10]
000000 60 cb 58 be 7c 4d 0b be bb b8 fb bd b5 f4 da bd
       -0.21171331 -0.13603777 -0.12291094 -0.106912054
000010 1e 0f 32 be 7a 92 cf bd 8d bc 62 be d1 7f d2 bd
       -0.17388579 -0.1013536 -0.22142239 -0.10278285
000020 f0 15 36 be ce e3 f2 bc
       -0.17781806 -0.029649641

convolution_layer_1.4.running_mean f4 [10]
000000 3d 27 1a bf 76 3b 66 bd 43 16 02 bf e9 35 01 bf
       -0.6021612 -0.05620905 -0.5081522 -0.50472885
000010 ff 34 1e bd 87 93 63 be a8 d0 af 3e 6b f5 a2 be
       -0.03862476 -0.22224246 0.3433888 -0.31827864
000020 a5 01 ac bd df a2 14 3f
       -0.08398751 0.5806102

convolution_layer_1.4.running_var f4 [10]
000000 d8 eb 15 3f d2 de 25 3f 6b f3 a4 3e 27 9e 07 3f
       0.58562994 0.6479312 0.32216963 0.52975696
000010 ac 88 4c 3e d2 ac 80 3e ef df d4 3e b0 53 18 3f
       0.19974011 0.2513185 0.41577098 0.59502697
000020 cb fd 05 3f 8c 0e af 3e
       0.5234038 0.34190786

convolution_layer_2.0.weight f4 [10, 10, 3, 3]
000000 54 aa c8 bd 06 3f 2a bd 1b 68 72 bd 86 18 0b be
       -0.097981125 -0.04156401 -0.059181314 -0.13583574
000010 af e3 0e be 1e e0 0a be 74 ce ce bd bf e4 3c bd
       -0.13954042 -0.13562056 -0.100979716 -0.046116587
000020 e1 bc 46 bd 46 ed ab bd 45 66 94 bd c7 6b 58 bd
       -0.048519973 -0.08394866 -0.07246069 -0.05283716
000030 29 3c c3 bd 8a b8 b5 3d 36 38 f9 bc 7b 6c ae bd
       -0.09532959 0.08873089 -0.030422311 -0.08516785
000040 f3 4e 15 3d 57 2f 3c bc f3 a1 49 bc 24 ff 9c 3d
       0.036452245 -0.011485896 -0.012306678 0.07665852
000050 54 01 b2 3d a2 e5 7b bd 4a 4d c8 3d 61 bc 1b 3e
       0.086916596 -0.06149829 0.09780367 0.1520858
000060 27 d4 2a 3c 78 af 0f 3e d1 4d ec 3d 4b b5 8e bc
       0.010426558 0.1403178 0.1153828 -0.017420432
000070 e1 ab 06 3d cd 6d 40 bd 9d 37 84 bd 1a 34 03 3d
       0.03287876 -0.046979714 -0.0645592 0.03203211
000080 82 66 c6 ba 47 03 75 bd c5 d2 00 3d aa 8c d3 bd
       -0.0015136751 -0.05981758 0.031451005 -0.10329564
000090 29 94 3c 3d 2d fa c9 3d da 99 6c 3d 3a 40 2c bd
       0.046039734 0.0986217 0.05776391 -0.04205344
0000a0 5f 5d c7 3d 84 dc 83 3d f6 dd 2a 3d fd b3 b2 3d
       0.09734606 0.064385444 0.041715585 0.08725736
0000b0 74 75 c5 3d f3 cb 88 bc cd 8c 85 3d ee 97 f8 3c
       0.09641543 -0.016698813 0.06520996 0.030345883
0000c0 87 06 7a 3d 10 d0 1f 3e 68 26 8d bd b5 ad 9b 3d
       0.06104138 0.15606713 -0.06892091 0.07601491
0000d0 06 ac b0 3d 96 2d 96 bd 66 d5 9f bc 20 4e 64 bd
       0.08626561 -0.073329136 -0.019510936 -0.05573857
0000e0 af d0 f7 bd 70 a8 92 bd f6 8b 92 bd 25 9d e9 bc
       -0.1210035 -0.07161033 -0.07155602 -0.028517315
0000f0 3b 19 8d bd 5b e5 04 be e8 10 85 bd 0e e8 f9 bd
       -0.06889578 -0.12978117 -0.06497365 -0.12202464
000100 56 50 09 be 87 33 86 bc b8 a6 0c be 3c 29 04 bd
       -0.13409552 -0.016381992 -0.13735473 -0.032265887
000110 12 b6 37 bd 18 56 4e be ac e8 cf bd c1 e3 0c bd
       -0.04485137 -0.2015003 -0.101518005 -0.03439689
000120 d5 fe ff bd fd 43 c2 bd 19 4c 17 3d 12 09 16 3c
       -0.12499777 -0.09485624 0.036937807 0.009157436
000130 4c 7d 89 bd b7 a4 12 3d 21 9a d8 bc 93 b2 71 bd
       -0.067133516 0.035801616 -0.026440682 -0.059008192
000140 67 35 4c 3a dc 2d cf 3c e9 b7 18 3d 69 1e 64 3d
       0.000778994 0.025290422 0.037284765 0.055693064
000150 f8 de 03 bd 07 8e 12 3e 0a ad 2a 3e 6e b5 c5 3d
       -0.03219506 0.14311992 0.16667572 0.096537456
000160 23 e1 d1 3d 83 ee a1 3d 71 97 15 bd d3 b7 3c bd
       0.102480195 0.079068206 -0.03652138 -0.046073746
000170 d7 33 ee 3c 40 9e bf bc 9c 84 c9 bd 8f 6a 8c 3d
       0.029077454 -0.02339089 -0.09839746 0.06856262
000180 6b a6 bc 3d f1 51 da bd 4e b1 e5 3c 52 ae a1 3c
       0.09211429 -0.1066016 0.028038647 0.019736443
000190 52 74 88 3d 13 8e 04 3e a7 50 c1 3d d7 af c5 bc
       0.06662811 0.12944822 0.09439211 -0.024131699
0001a0 49 b0 14 3e 76 82 b3 3d 7f 51 d2 bd 60 9b fc bc
       0.14520372 0.08765118 -0.102694504 -0.030835807
0001b0 0d 45 4b bc a3 71 fc 3b f1 33 15 bd f6 c9 02 bd
       -0.0124066 0.0077039762 -0.03642649 -0.031930886
0001c0 48 49 68 bd cc 7d be 3c ee 40 a9 bd 51 de 55 bc
       -0.05671051 0.023253344 -0.082643375 -0.013053493
0001d0 f0 c8 31 3d f4 54 52 bd 03 ba 7b 3c c6 80 69 bc
       0.04340452 -0.05135055 0.015364173 -0.014251893
0001e0 5a 65 fe 3c bd 94 d1 3d 29 9d 51 3c 50 12 eb bb
       0.031054188 0.10233448 0.012793818 -0.007173814
0001f0 4b fa e0 3d d7 ac f8 bc 36 33 c8 bd 67 f2 98 bd
       0.109852396 -0.030355854 -0.09775393 -0.074681096
000200 84 94 85 bd e9 3b 8c bd 90 61 0c be 8e b7 ee bc
       -0.06522468 -0.068473645 -0.13709092 -0.02914026
000210 51 e9 69 bd 00 0d a8 bd d2 41 e0 bd 2b 6d 43 be
       -0.057107273 -0.082056046 -0.10950054 -0.19084613
000220 d8 7c 8d 3d 12 e4 04 3e d1 c4 43 be 4e 7e 7e 3d
       0.06908578 0.12977627 -0.19118048 0.062132172
000230 7c ff 14 3b d5 61 a4 bd ba ad 86 3d 75 a0 93 3d
       0.0022735288 -0.080264725 0.065761045 0.07208339
000240 45 2a d1 bd bf 6b 8b 3d 1a 89 26 3d 06 85 8b bc
       -0.102131404 0.0680766 0.040658094 -0.017031204
000250 a5 b5 dc 3d b0 da ef bc 77 f3 92 bc 0d 96 29 bc
       0.107768334 -0.029279083 -0.017938359 -0.010350716
000260 3a 6e 81 3a c2 b8 6c 3d fc 2c d2 3c a0 63 94 bd
       0.0009874769 0.057793386 0.025656216 -0.072455645
000270 e2 72 06 bc 9e 9e 12 3d 3d 54 e4 bd 28 c1 35 3d
       -0.008206101 0.0357958 -0.1114888 0.04437366
000280 05 4f b9 3c fe fb 81 bd 36 22 32 3a 3a 93 0d bd
       0.022620687 -0.06346892 0.0006795259 -0.034564234
000290 68 4c 10 3e 4e c0 15 bd bc c4 00 be 96 d1 13 3e
       0.14091647 -0.03656035 -0.12575048 0.1443542
0002a0 d9 4c 69 3c 5c e5 b8 bd 03 5c 0d bd af f3 83 bd
       0.014239513 -0.09028122 -0.034511577 -0.06442963
0002b0 f6 6c 28 be 93 f8 86 3b b8 31 11 bb aa ab 05 be
       -0.16447815 0.004118988 -0.0022154879 -0.13053766
0002c0 d3 e7 57 bd c3 50 a2 bd 65 10 9f 3c d1 99 01 3d
       -0.05271132 -0.0792556 0.019416997 0.03164083
0002d0 0c ba 12 3d 9d 75 ac 3d 52 51 92 bc e1 7c 04 bd
       0.03582196 0.084208705 -0.017861042 -0.032345656
0002e0 30 b9 56 3d 51 bc ae 3d 5b 45 1b 3e 19 43 13 3d
       0.052422702 0.08532012 0.15163176 0.03595266
0002f0 4c a0 a9 3d b7 a6 8a 3d 04 a5 f2 3c 17 08 ed bc
       0.08282527 0.067700796 0.029619701 -0.028934522
000300 23 f5 ae 3d 57 e9 8b bd ed 4b 12 3e 30 2a 63 3c
       0.0854285 -0.068316154 0.14286776 0.013865039
000310 15 1e 36 bd e2 61 a1 3d 7d 3c 92 bd 09 fe 09 be
       -0.044462282 0.07879998 -0.071404435 -0.13475813
000320 c5 6e a0 bd cb 91 ec bc de 4e 6c 3c 9a 40 96 bd
       -0.078336276 -0.028878113 0.0144231 -0.073365405
000330 f1 b3 17 3d 4f 8d 6c bc 99 76 aa bc 66 50 4b bc
       0.03703684 -0.0144379875 -0.020808505 -0.012409305
000340 8f 82 e1 bd c0 4c fd bd 39 18 94 bd 8f d9 14 be
       -0.1101123 -0.123681545 -0.072311826 -0.14536117
000350 c7 08 ed bd 9d 3d 5d bd 8d 0d 03 be 83 f7 d9 bd
       -0.1157394 -0.054013837 -0.12798138 -0.10642912
000360 2c f2 89 bd c8 e8 8f bd ea 6c 83 bd 4a 37 2c bd
       -0.06735644 -0.070268214 -0.06417258 -0.042044915
000370 f1 cc 99 bd 42 a9 fa bc 22 26 96 bb 37 12 83 bd
       -0.075097926 -0.030598287 -0.0045821825 -0.063999586
000380 72 76 7d bd 76 4d a1 3b 42 08 ea 3b bc 31 a9 3d
       -0.061880536 0.004922564 0.0071420977 0.08261439
000390 78 6a 5b 3a 0b 86 76 3d e1 71 7f 3d 6e 6c 90 3d
       0.0008370052 0.060186427 0.062364463 0.07051931
0003a0 30 be d8 3c 28 38 1e bd a7 e8 54 3d f4 11 76 bd
       0.026457876 -0.038627774 0.051979687 -0.060075715
0003b0 e0 8c 9d bc b3 e6 b9 bc 5b b3 46 bd 3a 81 97 bd
       -0.019232213 -0.022693014 -0.04851089 -0.07397695
0003c0 0e af 18 3e 21 78 c1 3d cf 73 5f 3d 70 ae f3 3d
       0.14910528 0.09446741 0.054553803 0.11898506
0003d0 ef 31 d4 bd d8 95 e7 3b a1 92 dc 3d eb 07 a6 3d
       -0.103610866 0.0070674233 0.10770155 0.08106979
0003e0 33 d3 8a bd de e8 c6 3d b4 b6 5f bc f3 72 a8 3c
       -0.06778564 0.09712385 -0.0136544 0.020562625
0003f0 ce 2d 34 bd 88 73 ad bd 87 4f 67 bd 76 2b b4 bd
       -0.043988995 -0.084693015 -0.056472328 -0.08797352

convolution_layer_2.0.bias f4 [10]
000000 f9 2a a3 3d 17 f4 ac 3c fd a3 5e bd da 7e 8c 3d
       0.07967181 0.021112485 -0.05435561 0.068601325
000010 2a 19 02 be a7 32 73 bd d6 72 61 bc b4 51 2a 3d
       -0.12704912 -0.059374478 -0.013760289 0.041581824
000020 0a 43 d9 3b 51 34 9e bd
       0.006630306 -0.07724822

convolution_layer_2.1.weight f4 [10]
000000 e6 c9 79 3f 99 5e 82 3f a1 25 6b 3f c8 48 82 3f
       0.975737 1.0185119 0.9185429 1.0178461
000010 7a 0e 83 3f dc 19 83 3f 02 0a 7b 3f 24 63 77 3f
       1.0238793 1.0242267 0.98062146 0.9663565
000020 22 21 87 3f 55 09 83 3f
       1.0556986 1.0237223

convolution_layer_2.1.bias f4 [10]
000000 3a a5 8e bd d7 af 22 bd 37 7f 7b bd da 46 47 bd
       -0.06965108 -0.039718475 -0.06140062 -0.048651554
000010 ef 35 47 bd 06 78 61 bd c2 5f 2f 3d 7f c2 09 be
       -0.04863542 -0.055046104 0.04281593 -0.134531
000020 09 73 d0 3c bd d0 86 bd
       0.025445478 -0.065827824

convolution_layer_2.1.running_mean f4 [10]
000000 cd 9b 9e 3b 3f ab 32 bf e0 15 f2 be 8e ef 01 40
       0.0048403502 -0.6979255 -0.47282314 2.0302463
000010 85 90 fd 3d 14 5d 31 bf a7 83 c3 3e ea d3 15 3f
       0.123810805 -0.6928265 0.3818638 0.5852648
000020 86 f4 80 bf 2a b8 88 bf
       -1.0074623 -1.0681202

convolution_layer_2.1.running_var f4 [10]
000000 31 9c a1 3f 14 b4 b0 3f b3 98 0c 3f cb 3d 6e 40
       1.2625791 1.3804955 0.549205 3.7225215
000010 37 e5 71 3f 0c 25 e0 3f 79 ba c0 3f 53 51 23 3f
       0.9449038 1.7511306 1.5056907 0.63795966
000020 fa f8 0c 40 4b b9 c6 3f
       2.2026963 1.5525297

convolution_layer_2.3.weight f4 [10, 10, 3, 3]
000000 41 e9 9b 3d 09 1b 3d bd fb d3 83 bd f6 25 8f bd
       0.07612849 -0.04616836 -0.064369164 -0.06989662
000010 1e 93 e4 bd 68 7c 97 bc 37 07 7a bd 00 bd 9e bc
       -0.11160873 -0.018491939 -0.061042037 -0.019377232
000020 b0 83 ae bd 93 0e 56 3c 9b 51 1a 3e 12 90 80 3d
       -0.08521211 0.013064998 0.15070193 0.06277479
000030 bd fe 35 3d 51 45 08 3e 18 38 42 3e c2 a5 a3 3d
       0.04443239 0.13307692 0.1896671 0.079906
000040 54 79 24 3e bb 81 2b 3e 11 22 46 3c 2d 15 2b 3c
       0.16061908 0.16748707 0.012093083 0.01044206
000050 51 7f 3b 3d c8 db 9e 3c 84 b8 a8 3d 07 e0 05 3e
       0.045775715 0.01939191 0.082383186 0.13073741
000060 0b 8a 40 3d 17 dd e0 3c c1 73 be 3d 9c 58 d3 bd
       0.047006648 0.027449174 0.09299422 -0.10319635
000070 60 dc 75 3d 47 6e c5 3c 5b b5 84 3d 23 00 22 3c
       0.06002462 0.024100436 0.06479903 0.009887728
000080 63 c0 af bd 7e 52 b5 3d 71 74 db bc 44 f8 89 3c
       -0.08581617 0.08853625 -0.026788922 0.016842015
000090 a5 a6 37 bc a1 4e 9e bd 39 c8 45 3d b7 e7 89 bd
       -0.011209165 -0.07729841 0.04828665 -0.06733649
0000a0 16 be b5 3d 4f 0f 1e 3c 5c 9f 8c 3d 1d b2 fb 3d
       0.08874147 0.009647205 0.06866333 0.12289832
0000b0 d6 bc 9c 3d 06 1c 76 3d ca c6 7f bd 3d b2 45 be
       0.07653205 0.06008532 -0.06244544 -0.19306274
0000c0 03 8d f9 3c ee aa d8 bd a2 c4 2c be 3e 4d 80 bd
       0.030462747 -0.10579477 -0.16871884 -0.06264733
0000d0 b4 70 b3 bd e3 dd 00 be 6a 38 8c 3d bd 3f 37 3d
       -0.08761731 -0.12584643 0.06846698 0.04473852
0000e0 74 77 99 3d 7e 2a 83 3c f0 b7 a0 bd 77 27 1a bd
       0.07493487 0.016011473 -0.07847583 -0.037635293
0000f0 5b b2 bf bd 7f e4 a3 bd ae 98 6d 3d 63 97 23 3d
       -0.093601905 -0.080025665 0.058006935 0.039939296
000100 f9 5b 2a 3d bb 40 b2 bc 0a 22 06 bd 06 82 aa 39
       0.04159162 -0.021759382 -0.032747306 0.00032521802
000110 a3 63 11 3d 5a 55 2b 3d 54 26 d6 3c ee 34 81 bd
       0.03549541 0.041829444 0.026141323 -0.06308924
000120 16 f2 1b be c6 5f 27 be ad a3 4b bd fa ac fa bd
       -0.15229067 -0.16345128 -0.04971664 -0.12240024
000130 db 80 e5 bd c9 bd aa bd 9d 71 95 bd cf e2 05 bd
       -0.11206218 -0.0833698 -0.07297061 -0.032687005
000140 ce 47 a6 bd ee 89 1f 3c 35 4f 15 3d 12 f8 87 bd
       -0.081191644 0.009737475 0.03645249 -0.066391125
000150 99 5d a7 3d d3 c8 c5 3d dc 29 85 bd 98 55 ee 3d
       0.08172149 0.09657445 -0.06502125 0.116374195
000160 4d 21 73 bd 51 39 19 be 98 5b 02 be 66 5e dd bd
       -0.05935793 -0.1496327 -0.12730253 -0.10809021
000170 36 47 54 bd 37 ca b3 bd 17 46 9f bc 45 76 de bd
       -0.051825725 -0.08778804 -0.019442601 -0.10862402
000180 39 5f 3d bd 2d ab 9b bd e9 df ca bc ee b0 94 3d
       -0.04623339 -0.076010086 -0.024764972 0.07260309
000190 06 4d ed 3d be 6a 08 bc 12 43 d4 bd 5d 9e 64 ba
       0.11586957 -0.008326231 -0.10364355 -0.0008721108
0001a0 24 4b e6 bc da 39 25 3c cc 02 d8 3c 14 2d da 3d
       -0.028112002 0.010084594 0.026368521 0.10653129
0001b0 6e cd b8 3d e1 31 63 3d 23 06 96 3d 95 80 af 3d
       0.090235576 0.05546749 0.07325389 0.08569447
0001c0 21 bd ce 3d 52 7c e5 3d 32 d4 85 bd 4c b3 62 3d
       0.10094667 0.11205353 -0.06534614 0.055346772
0001d0 33 74 69 bd ea 1c f0 bd b3 f7 21 bd 4a 05 00 3d
       -0.05699558 -0.11724265 -0.039542865 0.031255044
0001e0 d7 f9 12 3d d2 1e 74 bb 43 21 14 bc 39 9a 67 bd
       0.035882797 -0.0037249816 -0.009041133 -0.056543563
0001f0 b9 1c 6c bd 50 51 10 bd 43 1b 82 3d 0a 76 fe 3d
       -0.05764458 -0.035233796 0.06352856 0.12424858
000200 ce f5 df 3d 25 40 54 3b 65 4b 78 3d 74 be 9c 3c
       0.109355554 0.0032386866 0.060618777 0.019133784
000210 57 eb 29 3d fe c6 3a bc af da c1 3d 89 32 dc bd
       0.041484203 -0.0113999825 0.09465539 -0.10751826
000220 2a 87 bc 3d 9d 40 58 3d 0d 12 f0 bd 27 18 ec bd
       0.09205468 0.052795995 -0.11722193 -0.11528044
000230 0f 61 14 bd 7e 9d 41 bd 1f 8e b8 3b 1c 5e eb bd
       -0.036225375 -0.047269337 0.0056321765 -0.11492559
000240 be db 95 3c b5 63 b3 bd 4e 5c 2d bd 34 2b 9c bd
       0.018293258 -0.08759252 -0.042324357 -0.07625428
000250 f3 c5 33 3b 8c a7 3d bc ab 31 07 be 3b be cb bd
       0.002743122 -0.011575591 -0.1320254 -0.09948393
000260 d6 1d 36 bd a9 20 0d be 85 41 02 bd a6 33 4b 3a
       -0.044462048 -0.1378199 -0.031800766 0.00077515317
000270 2e 21 97 bd c8 66 af bd 39 3a e3 bc 6c 5e c5 bd
       -0.073793754 -0.08564526 -0.027737724 -0.0963715
000280 8f 4d b0 bd 5e 9b 5a bd 15 c4 ec 3d 9e eb ce bb
       -0.08608543 -0.053370826 0.11560837 -0.006314709
000290 19 15 37 3d fb a3 5a bc a2 21 01 bc 42 db ba bd
       0.044697855 -0.01334476 -0.007881554 -0.09123851
0002a0 c0 38 f2 3d 2c 5f 01 3e 41 d6 2a bb 99 8a a8 3b
       0.118272305 0.12633961 -0.0026067647 0.0051434753
0002b0 a8 8a a3 3b b0 c6 3c 3b c9 6c e6 bc 16 53 22 be
       0.0049908943 0.002880495 -0.028128045 -0.15852007
0002c0 9c 73 1f be 46 81 2d be 00 28 54 bd f2 b9 2f be
       -0.15571445 -0.16943845 -0.05179596 -0.17160776
0002d0 32 4d e3 bd 30 e3 0b bd 82 e3 5b bd 53 93 49 bd
       -0.11098708 -0.03415221 -0.053683765 -0.049212765
0002e0 cd 41 c6 bc 61 25 09 bd 28 07 5c 3b d2 8d cf bd
       -0.024201298 -0.033482913 0.0033573601 -0.10134472
0002f0 ae 30 67 bc a8 24 32 3d 31 1e 38 3e 9f 23 1c 3c
       -0.014110727 0.04349199 0.17980267 0.009529977
000300 30 37 93 bd bf 10 49 3d ff 75 91 3d fa 3e 87 3d
       -0.071882606 0.049088236 0.07102584 0.06603809
000310 76 bf fe 3d 92 f5 ac 3c e0 e0 2e bc 32 58 ca bd
       0.12438862 0.02111319 -0.010673732 -0.09880103
000320 58 e2 59 bd 28 1b d2 3d 4c 8a 92 bc 8c 36 80 bd
       -0.053194374 0.10259086 -0.01788821 -0.06260404
000330 fa d8 42 3d 1c e7 13 be b6 84 09 be 91 a8 3a be
       0.047570206 -0.1444363 -0.13429531 -0.18228365
000340 26 68 bd bd 75 1a 21 3d 71 db 9e bc b0 4e 69 bd
       -0.0924838 0.039331872 -0.019391747 -0.056959808
000350 5e d1 3a 3c 8c b1 b6 3b 61 8a 51 bc 35 11 c9 bd
       0.011402456 0.0055753645 -0.01278934 -0.09817735
000360 0f de 15 bd c8 e8 f4 bc 30 e2 80 3d 51 79 92 3c
       -0.036588725 -0.029896155 0.06293142 0.017880114
000370 68 ae 98 3d 2b aa 41 3d 68 f9 29 3e 84 e7 4d 3e
       0.0745514 0.047281425 0.16599047 0.20107847
000380 9b 24 0d 3e b3 bd 45 bd 6b 93 af bd d9 2b e0 bc
       0.13783495 -0.048276614 -0.085730396 -0.027364658
000390 5f da 0e be b8 0e da bd 9d 4d 79 bd 46 3c c6 bd
       -0.1395049 -0.10647339 -0.060865033 -0.09679465
0003a0 90 ab 0f be 26 d9 56 bc 33 b0 9d 3d 96 4a 98 bd
       -0.1403029 -0.013113296 0.07699623 -0.07436101
0003b0 e1 6d 08 3c ab d0 4d bc 69 2b 40 bd 66 2f 88 bd
       0.008326978 -0.012561957 -0.0469164 -0.066496655
0003c0 76 81 a3 3d b2 fb 57 bc 63 de e2 bd c0 b0 4c bd
       0.07983677 -0.013182567 -0.11077573 -0.04997325
0003d0 af 6c 2d 3c 79 82 66 3d 69 8c aa bb 16 27 b2 ba
       0.010584994 0.056276772 -0.0052047265 -0.0013591971
0003e0 e2 f3 0d 3b cd 75 dd bc 17 e9 aa bc 70 4b a0 3d
       0.0021660258 -0.02703371 -0.020863099 0.078268886
0003f0 13 a1 65 3b 76 c3 91 3d 42 21 a1 bc be 4a 4b bc
       0.0035038635 0.07117359 -0.019669179 -0.012407957

convolution_layer_2.3.bias f4 [10]
000000 f7 80 fe bc 43 85 a0 3d d0 8b a1 3c fa eb c2 bc
       -0.031067355 0.07837918 0.019719988 -0.023794163
000010 83 bb be 3d 53 17 9f bc f1 ca 92 bc 6a 13 51 3e
       0.09313109 -0.019420302 -0.017919036 0.20417562
000020 8f dd 8b bd b9 1a 7d bc
       -0.06829368 -0.015448266

convolution_layer_2.4.weight f4 [10]
000000 ee 94 4e 3f d8 5d 77 3f c0 1a 72 3f 9b 96 89 3f
       0.80696 0.9662757 0.9457207 1.0749086
000010 64 d1 74 3f de 8a 84 3f c1 87 78 3f 6e 1c 86 3f
       0.95632005 1.0354879 0.97082144 1.0477426
000020 1b fe 7c 3f 41 81 88 3f
       0.98825234 1.0664445

convolution_layer_2.4.bias f4 [10]
000000 fc 2d 63 be 5b 5f 64 be 7b 49 fd bd 55 04 6f be
       -0.2218551 -0.22302 -0.12367531 -0.23341496
000010 49 b9 8d be 97 9c 8a be 1d ba 23 be 45 04 28 be
       -0.27680424 -0.27072594 -0.15988965 -0.16407879
000020 eb 2d 2f be bd 2a af be
       -0.1710736 -0.34212294

convolution_layer_2.4.running_mean f4 [10]
000000 c4 83 fc bd b7 f6 e8 be 7e ef 61 3b f7 5f 62 bf
       -0.1232982 -0.45500728 0.0034475024 -0.8842768
000010 85 06 19 3d 8d 7f aa be bc 01 9a bd db 4a 36 bd
       0.037359733 -0.3330044 -0.07519862 -0.04450498
000020 9b ee 6b be 32 b1 03 be
       -0.2304024 -0.12860563

convolution_layer_2.4.running_var f4 [10]
000000 b5 2a af 3e 50 11 f8 3e 5e 7c af 3e 0e 5c 16 3f
       0.3421227 0.48450708 0.34274572 0.58734214
000010 bd 8c 43 3e d4 f5 88 3e d8 ad 13 3f 3a 77 02 3f
       0.19096656 0.26750052 0.5768714 0.50963175
000020 43 05 6b 3f 35 78 a6 3e
       0.91804904 0.32513586

multilayer_perception.1.weight f4 [10, 13690]
000000 ff fc 7a bd de e0 46 bd b4 9d 94 bc 4d 7a 51 bd
       -0.061276432 -0.048554294 -0.018141605 -0.051142026
000010 67 1c 8d bd 4b dc 39 bd 18 31 6d 3c a1 0b 0c 3d
       -0.06890183 -0.045376103 0.014477037 0.034190778
000020 7d 3f 8c bc bb bb 88 bd 90 6f 4e bc f4 e1 cd bb
       -0.017120117 -0.06676432 -0.012599841 -0.006283039
000030 5f c3 14 be 13 15 bc bd 42 65 7c bd 6a 06 44 bc
       -0.14527653 -0.09183707 -0.061620004 -0.01196442
000040 64 82 74 bd 06 6d 10 bd 27 e5 3a bd ea e5 1d bd
       -0.059694663 -0.035260223 -0.045628693 -0.03854934
000050 c9 2a a3 bb 1a df 0f bd eb 9a d5 bd 75 70 89 bd
       -0.0049794656 -0.035124876 -0.10429939 -0.067109026
000060 ea 99 a2 bd 02 01 d2 bc 58 f5 9f bc 23 fc 2c bd
       -0.07939513 -0.025635246 -0.019526169 -0.042232644
000070 29 b2 c7 bd c0 68 87 bd 77 b2 22 bd 11 a7 5f bd
       -0.09750778 -0.06611776 -0.03972098 -0.054602686
000080 6f 1f 96 bd c2 d2 e0 3b 19 44 7d bd 0e 13 cb bd
       -0.07330214 0.006861062 -0.06183252 -0.09915744
000090 71 e6 47 bd 0c 67 dc bc f4 76 ad bd 4c 65 9a bd
       -0.04880375 -0.026904605 -0.08469954 -0.07538852
0000a0 fa 53 45 bd ce d6 65 bd da 9e 6a bd cf 01 04 3d
       -0.04817579 -0.056113057 -0.0572804 0.032228287
0000b0 ce f7 ea 3c 27 a9 06 bc 8d b6 ae 3a b0 59 b5 b9
       0.028682616 -0.00821904 0.0013329551 -0.00034589833
0000c0 1a 03 58 bd cf 87 4a bd 75 cb 76 bd 45 cb 03 3d
       -0.052737333 -0.049445923 -0.060252625 0.032176275
0000d0 a6 ed 61 3d 8c 06 32 bc b2 5b 98 3b cd d0 85 bc
       0.05515828 -0.010865819 0.004649603 -0.016334916
0000e0 be ce 96 3c 64 51 13 bd ed d5 ba ba 5e 1c d0 bc
       0.01840913 -0.035966292 -0.0014254429 -0.025404152
0000f0 2b 47 8e bc 80 f4 96 bc e5 4c 35 bd 09 59 8c bc
       -0.01736792 -0.018427134 -0.044262785 -0.017132299
000100 5d cf 4f 3b 2f 7f 04 bd b7 a6 ca bb 57 65 c6 3c
       0.0031709292 -0.032347854 -0.0061844247 0.024218244
000110 77 78 dc bc 54 7a cd bd 86 6e 8a bd 9f 6e 1c bd
       -0.02691291 -0.10033098 -0.06759362 -0.038191434
000120 8a b4 07 3d 10 26 9f 3c 4f 46 98 bd 82 54 47 bd
       0.03313116 0.01942733 -0.07435285 -0.048664577
000130 fb 14 8d ba 98 79 63 bd be 50 6b bd b3 bf 4a bd
       -0.0010763699 -0.055535883 -0.05745005 -0.049499225
000140 3c 76 d4 3c 9c 90 00 bd 27 dd d4 bb 6c 12 7f ba
       0.025935285 -0.03138791 -0.00649609 -0.0009730223
000150 4b 0a 21 bd c4 68 a4 bc 8d 94 bb bc 35 7f 89 bc
       -0.039316457 -0.020069487 -0.022897983 -0.01678429
000160 4c 95 1c bd d2 fa 41 3c de 93 40 bc 32 c8 1c bd
       -0.038228318 0.011839585 -0.011754004 -0.03827686
000170 af 3e 97 bd b4 5b 5e bc 00 e3 6d 3d a7 9d 71 bc
       -0.07385003 -0.013571668 0.058077812 -0.01474706
000180 77 0b c9 3c d9 f4 27 bd 6b aa 06 bd 3f b9 a0 3c
       0.0245416 -0.04100499 -0.032877367 0.019619582
000190 80 36 31 bd 58 d0 41 3c f5 5e 67 bc 95 2a f4 bb
       -0.043264866 0.011829458 -0.014121761 -0.0074513652
0001a0 f2 80 0d ba 19 5e 41 bd 8c 1e 16 bd 46 4c b7 bb
       -0.00053979375 -0.04720888 -0.036650226 -0.0055938093
0001b0 4f 9c f9 bb 37 c4 17 bd 36 cb b2 bd f0 24 c6 bc
       -0.0076175104 -0.03705236 -0.08730166 -0.024187535
0001c0 b8 1c b1 bc 13 a2 14 bd e6 61 41 3b 2d 48 75 3a
       -0.02162014 -0.03628738 0.0029507815 0.00093567633
0001d0 14 dc 8d bd bb 0d 1c 3b 30 27 28 bd bc 70 3b bd
       -0.06926742 0.0023811895 -0.041052997 -0.04576181
0001e0 90 cf 2b ba 04 da 40 bd d4 b3 4f bc 5a 68 81 bc
       -0.00065540615 -0.047082916 -0.012677152 -0.015796829
0001f0 e3 5a 41 3d e7 0e 45 bd d8 ff 30 bd 16 b4 9f bb
       0.047205817 -0.048109915 -0.04321274 -0.004873763
000200 d7 cd 34 b9 0b 41 4a bd 87 14 f0 bc c9 a4 d7 bc
       -0.00017242819 -0.049378436 -0.029306663 -0.026323693
000210 d8 5c e6 bc c7 a9 22 3d 83 9b 7a bc 9f 29 92 ba
       -0.028120443 0.039712694 -0.015295866 -0.001115132
000220 e4 41 26 3d be df 8e 3c 4f 33 3f bd 01 05 2e bc
       0.040590182 0.017440673 -0.04667979 -0.01062131
000230 90 da 37 ba 37 0c 21 bd b1 e8 d4 bc de a1 94 bc
       -0.00070134643 -0.03931829 -0.025989862 -0.01814359
000240 3c 0e 8f 3c 72 07 46 bc 15 af 57 bd 52 41 3b bc
       0.017462842 -0.012086736 -0.052657206 -0.011429148
000250 dd 2f 82 3d d3 51 01 bb 27 81 68 bc 5f ea 33 3c
       0.063567854 -0.001973261 -0.014190949 0.010981171
000260 54 b3 3a bd 89 56 0a bd 05 a0 08 bd 0d 4b 27 bd
       -0.045581177 -0.033773933 -0.03335573 -0.04084306
000270 c3 ff af bc 0b 8b 6f bd 59 f6 09 3d b1 f0 ee 3b
       -0.021484261 -0.05848221 0.0336822 0.0072918762
000280 bf 17 0c 3d ce f4 f5 3c f7 47 13 bd e1 97 b5 bc
       0.034202334 0.030023959 -0.035957303 -0.022167148
000290 c9 c2 9f 3c 6b df c3 3c f6 ae a4 bd a6 ad 29 bd
       0.01950206 0.023910245 -0.08041184 -0.04142537
0002a0 f7 c4 07 bc e7 24 68 3c e2 75 67 bc b0 2e 31 3c
       -0.008286706 0.014168954 -0.014127227 0.010814354
0002b0 06 fb 49 3c 20 f9 b2 3b cd 20 1b bd 6e d2 19 3c
       0.012327915 0.005461827 -0.03787308 0.009388549
0002c0 73 48 13 bd 2f d8 c1 3b c8 98 2e 3c 28 dc 1d bc
       -0.035957765 0.0059156637 0.010656543 -0.009635009
0002d0 48 c8 27 bd 0b f3 d0 3c 67 bd 3c 3c a9 14 30 3b
       -0.040962487 0.025506517 0.011519766 0.0026867783
0002e0 18 d1 6d 3c a0 65 71 3d f7 67 66 3d 23 14 8a bb
       0.014515184 0.058934808 0.056251492 -0.0042138263
0002f0 bb 7b 80 bc 57 ea c7 bb e4 80 7a bd 98 19 1b bd
       -0.015684 -0.0061009335 -0.061158076 -0.037866205
000300 98 e4 a5 bc 72 45 da bc 78 e0 2c bd 04 7a a2 3c
       -0.020250604 -0.026644442 -0.042206258 0.019833572
000310 cf 81 10 ba 57 4a 3d 3d e3 e9 8b bb 17 04 a6 bc
       -0.0005512507 0.046213474 -0.004269825 -0.020265622
000320 1e d9 2c 3b e4 78 1e 3d 20 8c e3 ba 61 c5 44 bd
       0.002637453 0.03868951 -0.0017360486 -0.048039798
000330 81 67 fb bc 7c 17 57 3d 43 cb 0d 3d 42 5c 62 bd
       -0.030689003 0.05251263 0.034617674 -0.055263765
000340 76 31 94 bc 8f 34 59 bd 85 f0 8b bc 2e b9 ff bc
       -0.018089991 -0.05302864 -0.017082462 -0.03121623
000350 57 20 bf bb 33 9d 27 bd a6 d1 1c bd eb 35 2f bc
       -0.0058327126 -0.0409214 -0.038285874 -0.010694007
000360 44 6d 99 bd 8a 47 98 bd 02 f9 7c bb d0 37 11 bd
       -0.07491544 -0.0743552 -0.0038600569 -0.035453618
000370 4d 5b 27 bd 00 60 85 bc 9e a3 06 3d 6f e9 58 3d
       -0.040858556 -0.016281128 0.03287088 0.052956995
000380 e3 9d 3f 3c ed 9d ae 3b 0c a2 61 3d a6 01 00 bd
       0.011695358 0.005328885 0.05508618 -0.031251572
000390 c9 44 7c 3b a7 1e 23 bd 50 6e 89 bc b9 a9 8f 3c
       0.0038493148 -0.039824154 -0.016776234 0.017536985
0003a0 6e d2 9b 3d 1e b9 93 bb 3c 63 ea 3c 09 51 91 3d
       0.07608496 -0.0045081517 0.028611772 0.07095534
0003b0 d4 dd 4c bd 1f 04 4a bc 3c d1 0e 3d 92 eb 11 3a
       -0.05001624 -0.012330084 0.03486751 0.0005566414
0003c0 5d ce ad bb 2a 50 17 bb 44 73 2d 3d cc f3 e7 bc
       -0.0053041414 -0.0023088553 0.042346254 -0.028314494
0003d0 bc 22 71 3c 32 44 63 bc 27 c7 54 3c 32 65 9f bc
       0.014717754 -0.0138712395 0.012986935 -0.019457433
0003e0 4e b6 62 bc 54 5a 1a bd 16 24 21 bc 4f 37 30 bd
       -0.01383741 -0.0376838 -0.009835264 -0.043021496
0003f0 b4 71 69 bb 6f 7d f7 bd f1 ca 03 bd 17 d5 1d bd
       -0.003562075 -0.120844714 -0.032175962 -0.038533296

multilayer_perception.1.bias f4 [10]
000000 0b bc b8 3b 76 43 bf bb 17 54 fa 39 83 de ff 3b
       0.005637651 -0.0058368994 0.00047746368 0.007808508
000010 6c 69 57 bb 22 16 d5 bb 40 e3 77 3b 2d d7 d5 3a
       -0.0032869233 -0.0065028826 0.003782466 0.0016314738
000020 e7 1e 0e bc 44 1f 56 bb
       -0.00867436 -0.0032672444

multilayer_perception.2.weight f4 [10]
000000 be a5 f2 3f ae 6d e1 3f d3 80 ed 3f 73 c5 e4 3f
       1.895683 1.7611597 1.8554939 1.7872757
000010 8b c7 df 3f 78 3a f9 3f a2 9f ed 3f 63 a7 ec 3f
       1.7482771 1.9470968 1.8564341 1.8488582
000020 73 fb ea 3f d2 f1 ec 3f
       1.8357986 1.8511298

multilayer_perception.2.bias f4 [10]
000000 a8 77 35 3f 98 36 39 3e fb 49 c6 3e fd ce 54 3e
       0.70885706 0.18087232 0.38728318 0.20782085
000010 13 38 e1 3e bb c7 11 3f 7c 83 c7 3e 52 62 d5 3e
       0.43988094 0.5694539 0.38967502 0.41676575
000020 0b 64 9d 3e cb f7 c9 3e
       0.3074039 0.39446864

multilayer_perception.2.running_mean f4 [10]
000000 55 26 e5 41 93 f2 06 c1 72 50 2c c1 7c f2 c0 c1
       28.643717 -8.434222 -10.76964 -24.1184
000010 f2 d3 03 42 92 99 3b 42 49 76 4a c1 70 19 ab c1
       32.956978 46.89997 -12.653878 -21.38742
000020 fd a4 d6 c1 d1 9f 3c c1
       -26.83056 -11.789018

multilayer_perception.2.running_var f4 [10]
000000 5d 2b 4d 43 f8 9e 1a 43 9b d4 24 43 f6 9e 60 43
       205.16939 154.62097 164.83049 224.62094
000010 a5 c1 29 43 a5 7d 7a 43 ee 23 7b 43 08 2a 23 43
       169.75642 250.4908 251.14035 163.16418
000020 a1 80 21 43 e3 2b 5b 43
       161.50246 219.17143

multilayer_perception.5.weight f4 [10, 10]
000000 c3 34 1b 3f 84 f5 1d 3f b5 1f a1 be 4c e0 bd 3d
       0.60627383 0.6170275 -0.31469503 0.09271297
000010 be c3 00 3e 7d 96 31 3f e2 29 35 bf 1f 10 01 bf
       0.1257467 0.6937025 -0.70767033 -0.50415224
000020 80 f6 d5 be e6 9a e2 bd 80 22 5b bf c1 5b 13 3f
       -0.41789627 -0.11064701 -0.8559952 0.5756188
000030 83 fa 2b 3f b3 0f fd 3e 4b 34 2d bf 15 ea 4b bd
       0.67179126 0.4942604 -0.6765792 -0.049783785
000040 8a 50 35 bf 4f ef 7f 3e fc ad 5b bc f7 d2 27 3f
       -0.7082602 0.24993633 -0.01340818 0.6555628
000050 28 d0 63 be 23 f8 cd be 99 a8 9e be 2f 3d fb be
       -0.22247374 -0.40228376 -0.30988005 -0.49070117
000060 c7 00 ce 3e 9b 65 4b bf 8b f3 16 3f d7 85 09 3f
       0.40234968 -0.7945191 0.5896537 0.5371985
000070 cd 9f fc 3d 29 28 ea be f7 e4 49 bd f3 ce 1c bf
       0.12335167 -0.45733765 -0.049290624 -0.6125328
000080 93 c1 08 bf aa 50 d4 3e f7 55 a3 be a7 11 f2 be
       -0.5342037 0.41467792 -0.31901523 -0.47279093
000090 76 b7 83 3e 33 ee d9 3e b7 06 26 3f 3d b7 4b bf
       0.25725907 0.42564544 0.64853996 -0.79576474
0000a0 01 47 1c 3f 5b e6 77 be 8a c2 6f 3d 5c f7 11 bf
       0.61045843 -0.24208967 0.058535136 -0.57018065
0000b0 07 6d 1a bf 72 b5 8c 3d 4f 92 24 3f 55 ba b5 be
       -0.6032261 0.068705454 0.6428575 -0.35493723
0000c0 89 3f 2f 3f 18 b6 79 be 3c 1f b2 3e e2 b2 40 be
       0.6845632 -0.2438587 0.34789455 -0.18818238
0000d0 52 d0 26 3f ab 9c f4 be 1e 1f cc 3e 65 1d 21 3f
       0.6516162 -0.47775778 0.3986749 0.6293548
0000e0 fd 12 02 bf 23 11 4c bf 3d 1e 9f be ee 89 1f 3f
       -0.50810224 -0.7971365 -0.31077757 0.6231984
0000f0 6b 5b 98 be db 1a 9e be 70 ac f1 be b5 d2 51 bf
       -0.29757246 -0.30879864 -0.47201872 -0.8196214
000100 c3 8f 4a bf f0 7a 39 bf 5f 67 d5 be 46 d3 34 bf
       -0.7912561 -0.7245321 -0.41680428 -0.7063488
000110 55 2e 45 bf e1 9c 80 be 8e d2 3a bf 9b 7d 28 bf
       -0.7702382 -0.2511969 -0.7297753 -0.6581666
000120 a9 59 08 bf ea 22 b3 be 4e 87 de be e3 8b 03 bf
       -0.5326181 -0.34987575 -0.43462604 -0.51385325
000130 9f ec 38 bf a9 b2 5b bf 62 1d 20 bf 1c b3 51 be
       -0.72236055 -0.8581949 -0.62544835 -0.20478481
000140 b5 57 9a be 6e b1 b8 be cd 85 2f bf 8c 5c ff be
       -0.3014504 -0.36072868 -0.6856354 -0.49875295
000150 80 44 e3 be 07 a3 f2 be b1 3d f2 be 34 77 4d bf
       -0.443882 -0.47390005 -0.47312692 -0.80260015
000160 5d f2 ab be 6c 6c 31 bf 22 68 49 bf 36 4b e7 be
       -0.33583346 -0.69306064 -0.7867452 -0.4517457
000170 d9 c3 cb be 55 b4 5a bf 43 ac 35 bf 61 ce 89 be
       -0.39797857 -0.85431415 -0.70965976 -0.26915267
000180 a4 30 c3 be f4 d0 25 bf 98 22 b2 be 15 6f b4 be
       -0.38123047 -0.6477196 -0.34792018 -0.35241

multilayer_perception.5.bias f4 [10]
000000 4b 16 24 3e af 51 1b bf e7 b4 24 3f 5e 80 36 3f
       0.16024129 -0.60671514 0.64338535 0.7128962
000010 01 17 63 3e cd 57 9d bd 88 75 e1 be 2b fa 2d bf
       0.22176744 -0.07682762 -0.44034982 -0.6795985
000020 51 ff a0 be 3e 04 de be
       -0.3144479 -0.43362612
