models/intel_image_cnn.pth (torch, 572591 bytes, 32 tensors)

convolution_layer_1.0.weight f4 [10, 3, 3, 3]
0.4038524 1.0104592 0.50952333 -0.21156481 -0.509339 0.17739305 -0.40525767 -0.07560482
-0.11656077 -0.05669047 0.782967 0.3750878 -0.30035153 -0.41667172 0.042473763 -0.32713038
0.001555982 -0.21403968 0.07469368 0.56315213 0.24349497 -0.11648022 -0.12781292 0.342701
-0.030355845 0.17822488 0.18335333 -0.42793408 -0.17907278 -0.3725784 0.09576365 -0.44370264
0.07825016 -0.19309941 -0.3211048 -0.13634975 0.17305 0.4301392 0.28648117 0.30742952
0.22171722 0.31141093 0.2798868 0.36137006 0.29162005 -0.5189653 -0.16049594 -0.21139292
-0.18302342 -0.64910334 -0.47783697 -0.5157721 -0.6295835 -0.273404 -0.40367755 -0.35761163
-0.25648335 -0.08874007 0.14021516 -0.5198195 -0.012219382 -0.18105221 -0.066944666 -0.61741084
-0.48016858 -0.47737998 -0.008795415 -0.19631562 -0.58187413 -0.19315614 0.08578088 -0.11685353
0.07803421 -0.26047105 -0.22790888 -0.06599518 -0.025112964 0.03692244 0.18922478 0.2482774
-0.05944637 -0.25995955 0.23817585 0.47057742 0.1178528 -0.10229315 0.6869798 -0.41766962
-0.045899145 -0.109803185 -0.3151008 -0.02624892 0.64814115 0.053709764 -0.29487175 0.5895587
-0.16879061 -0.060073424 -0.27615184 -0.13630085 0.04067983 0.7487108 0.22567143 -0.05337396
0.9906628 -0.004244632 0.26603463 0.21062635 -0.2844964 0.2400892 0.9977387 0.08576639
0.39114362 0.3087849 -0.24285753 0.16071837 -0.055590097 -0.5732526 0.05269501 0.49979758
-0.2567634 0.01064419 0.27346623 -0.6070653 -0.15619004 -0.428673 -0.38674405 -0.04410903
0.7694992 -0.21156788 0.24899681 0.3576793 -0.5295043 0.13604438 -0.24080436 -0.26433697
-0.013981973 -0.5758285 0.39636484 -0.36729658 0.22551748 -0.4047775 1.0234852 -0.10115757
-0.23363665 0.16949588 -0.58488667 0.594385 -0.03511386 -0.15018894 -0.18272948 0.820465
-0.1731072 -0.31154886 0.3147503 -0.9748893 0.49578717 -0.13366292 -0.12298196 -0.35254005
0.9660189 -0.30424872 0.43602008 0.12269099 0.86707604 -0.14886132 -0.36049423 -0.1272864
0.068124644 -0.22939117 -0.4202329 0.23872611 0.25087816 0.53577733 -0.5911106 -0.7020493
-0.7878882 -0.14338912 -0.20841597 -0.68840235 0.6104126 0.6314993 1.0117995 -0.24752893
-0.117821164 -0.02860425 0.14409429 -0.001990885 -0.038655434 -0.32987154 -0.18017294 -0.5151097
-0.1755644 0.4915864 -0.3417285 -0.43772626 -0.43839762 -0.2508346 0.14346981 0.41696286
-0.17706072 0.050870094 1.0789996 0.21338454 0.12945063 -0.06723033 0.22408454 -0.025961982
0.33324304 0.1517994 0.22226667 0.9280795 -0.056696575 -0.006456017 0.018177032 0.55539185
0.26486203 0.06938175 0.182077 -0.08728024 0.03904256 0.16890667 0.1906047 -0.011468453
0.23485082 0.20674786 0.10605307 0.0496693 -0.29721344 -0.27923647 -0.25955814 0.33965638
-0.0016990094 0.43442667 0.26826718 0.03790797 0.03822576 -0.29961556 -0.09887671 -0.2504982
0.43303686 -0.1717072 0.2980549 -0.13662316 0.20934139 -0.076888844 -0.2607865 0.92972505
0.13896772 0.09163569 -0.37301117 -0.16555941 -0.17148498 0.046596535 -0.34289864 -0.27397743
00000000: bec5 ce3e ba56 813f 1f70 023f 72a4 58be
00000010: 0a64 02bf 86a6 353e ef7d cfbe b3d6 9abd
00000020: 6ab7 eebd 4434 68bd 8670 483f 820b c03e
00000030: adc7 99be ff55 d5be f8f8 2d3d a27d a7be
00000040: 18f2 cb3a 382d 5bbe 00f9 983d bd2a 103f
00000050: bf56 793e 2e8d eebd 64e1 02be 8176 af3e
00000060: d2ac f8bc 9580 363e fac0 3b3e 2d1a dbbe
00000070: db5e 37be 99c2 bebe bc1f c43d fe2c e3be
00000080: 9f41 a03d dabb 45be d967 a4be 459f 0bbe
00000090: 0534 313e 353b dc3e a9ad 923e 6767 9d3e
000000a0: d709 633e 4171 9f3e 534d 8f3e 7f05 b93e
000000b0: 394f 953e e9da 04bf 0c59 24be 6377 58be
000000c0: 7e6a 3bbe a32b 26bf 0ca7 f4be a409 04bf
000000d0: 622c 21bf 9cfb 8bbe d3ae cebe df18 b7be
000000e0: c951 83be 5bbd b5bd 9094 0f3e e412 05bf
000000f0: ce33 48bc c065 39be 491a 89bd a30e 1ebf
00000100: a8d8 f5be 266b f4be a51a 10bc f606 49be
00000110: b4f5 14bf b9ca 45be e3ad af3d e750 efbd
00000120: 66d0 9f3d 765c 85be f260 69be 7b28 87bd
00000130: b4b9 cdbc fc3b 173d 24c4 413e 6e3c 7e3e
00000140: 097e 73bd 6b19 85be 5fe4 733e 86ef f03e
00000150: cf5c f13d 127f d1bd e8dd 2f3f cbd8 d5be
00000160: be00 3cbd 7ee0 e0bd e454 a1be fa07 d7bc
00000170: 94ec 253f c5fe 5b3d 6ef9 96be 52ed 163f
00000180: 72d7 2cbe 8d0f 76bd c663 8dbe 7392 0bbe
00000190: e59f 263d 83ab 3f3f 6916 673e a79e 5abd
000001a0: 149c 7d3f 8e16 8bbb b135 883e 6fae 573e
000001b0: 83a9 91be f1d9 753e ce6b 7f3f 4aa6 af3d
000001c0: fa43 c83e 0e19 9e3e a5af 78be 5b93 243e
000001d0: 71b2 63bd afc0 12bf b9d6 573d 78e5 ff3e
000001e0: 7e76 83be f864 2e3c c403 8c3e a268 1bbf
000001f0: 48f0 1fbe 077b dbbe 5103 c6be acab 34bd
00000200: e6fd 443f 40a5 58be 05f9 7e3e be21 b73e
00000210: 988d 07bf 384f 0b3e 6b95 76be 2d57 87be
00000220: a514 65bc 7f69 13bf 55f0 ca3e 4c0e bcbe
00000230: 0eee 663e ff3e cfbe 9001 833f b32b cfbd
00000240: 723e 6fbe 5490 2d3e 22bb 15bf 9e29 183f
00000250: 8dd3 0fbd 21cb 19be 701d 3bbe ff09 523f
00000260: 0443 31be 5583 9fbe f426 a13e 5892 79bf
00000270: d1d7 fd3e efde 08be f7dd fbbd 2180 b4be
00000280: 044d 773f 7dc6 9bbe 063e df3e 6a45 fb3d
00000290: b2f8 5d3f 1a6f 18be b392 b8be 5e57 02be
000002a0: ef84 8b3d 85e5 6abe c428 d7be 9e74 743e
000002b0: 1a73 803e b428 093f 0653 17bf 81b9 33bf
000002c0: 0bb3 49bf 99d4 12be ff6a 55be 233b 30bf
000002d0: 0044 1c3f f0a9 213f a582 813f 3978 7dbe
000002e0: 394c f1bd 7653 eabc 748d 133e 8279 02bb
000002f0: 2955 1ebd ece4 a8be 417f 38be 3bde 03bf
00000300: 27c7 33be 36b1 fb3e 0af7 aebe a81d e0be
00000310: a775 e0be 656d 80be c0e9 123e 287c d53e
00000320: 684f 35be 295d 503d a91c 8a3f 7a81 5a3e
00000330: b58e 043e 0eb0 89bd 6b76 653e 39ae d4bc
00000340: d59e aa3e 4d71 1b3e e099 633e 9e96 6d3f
00000350: ab3a 68bd ff8c d3bb 00e8 943c 292e 0e3f
00000360: ff9b 873e 0518 8e3d 6572 3a3e fcbf b2bd
00000370: 17eb 1f3d dff5 2c3e e12d 433e 2ee6 3bbc
00000380: bc7c 703e b6b5 533e 5a32 d93d 0972 4b3d
00000390: 5c2c 98be 15f8 8ebe cee4 84be 71e7 ad3e
000003a0: 4cb1 deba 2c6d de3e 515a 893e 6345 1b3d
000003b0: 9d92 1c3d 3667 99be df7f cabd 4d41 80be
000003c0: 02b7 dd3e 03d4 2fbe a79a 983e f1e6 0bbe
000003d0: 975d 563e e677 9dbd cf85 85be 7602 6e3f
000003e0: 8e4d 0e3e 7eab bb3d 52fb bebe 6888 29be
000003f0: c299 2fbe 02dc 3e3d 6990 afbe c546 8cbe

convolution_layer_1.0.bias f4 [10]
0.32653096 0.15244105 0.18083039 0.51799643 -0.45097077 -0.4142378 -0.7374487 -0.46692437
-0.14053974 -0.3209586
00000000: 112f a73e 8219 1c3e 9a2b 393e 6a9b 043f
00000010: a4e5 e6be fa16 d4be 70c9 3cbf b610 efbe
00000020: a6e9 0fbe b054 a4be

convolution_layer_1.1.weight f4 [10]
0.59037304 0.54588896 0.4134594 0.93180215 1.173774 1.5701954 1.1943854 0.40910703
0.4801855 2.0257921
00000000: b022 173f 61bf 0b3f f3b0 d33e 968a 6e3f
00000010: 3a3e 963f 2afc c83f 9fe1 983f 7a76 d13e
00000020: e0da f53e 94a6 0140

convolution_layer_1.1.bias f4 [10]
-0.5814769 -0.21853948 -0.47126487 -0.22603285 0.1736555 1.1896182 0.4122649 0.23473129
-0.53393894 1.7923356
00000000: acdb 14bf d0c8 5fbe a149 f1be 2875 67be
00000010: bfd2 313e 6945 983f 6314 d33e 665d 703e
00000020: 39b0 08bf 416b e53f

convolution_layer_1.1.running_mean f4 [10]
1.0693102 -1.082024 -1.8299688 1.8030007 -0.2647961 -0.4953526 -0.8505773 0.43186456
0.5255606 -0.3310074
00000000: 28df 883f c37f 8abf 6b3c eabf bac8 e63f
00000010: 5b93 87be db9e fdbe 6fbf 59bf 5a1d dd3e
00000020: 248b 063f cd79 a9be

convolution_layer_1.1.running_var f4 [10]
0.3565622 0.61518073 1.2210755 0.71248895 0.23415397 0.18984665 0.31166568 0.45583412
0.16544469 0.107682295
00000000: 528f b63e 7c7c 1d3f 344c 9c3f ad65 363f
00000010: 0fc6 6f3e 2967 423e a592 9f3e 1763 e93e
00000020: 556a 293e 8988 dc3d

convolution_layer_1.3.weight f4 [10, 10, 3, 3]
0.012878614 0.029830636 0.07862755 0.10434305 0.17385183 0.13456716 0.06580046 0.28397426
0.17457663 0.26907212 0.041088365 0.011602323 0.1018889 -0.085192576 -0.08144774 0.13930725
0.013570523 -0.05420824 0.034640703 0.05200311 0.19913775 0.06501668 0.10390945 0.21326432
-0.09927356 0.128799 0.12472851 0.5899409 0.062409375 -0.12437646 0.6420234 0.027892679
-0.2046952 0.52484834 -0.13704154 -0.046780057 0.3373326 0.070112854 -0.47488472 0.597838
-0.023155589 -0.6921 0.39021653 0.1018083 -0.40518457 -0.21947108 0.011568844 0.64582014
-0.5328805 -0.04943263 0.4040751 -0.6419278 -0.34147492 0.41589755 -0.11731731 -0.20513393
-0.05791797 0.15041243 -0.15242968 -0.51714414 0.45530343 0.2902562 -0.2141499 0.050515175
0.006255736 0.025380334 0.13066208 -0.05574451 -0.1957547 -0.23468448 -0.07352797 -0.090685405
0.153899 0.027502561 -0.09375345 0.113121845 -0.00694827 0.0074067796 0.036675163 0.069585085
-0.10511619 -0.53229874 0.06882663 0.7340678 -0.58106196 -0.30046457 0.42985618 -0.6460451
-0.04579205 0.53678197 0.049369708 0.057261847 -0.10277253 0.0016312039 -0.07934451 -0.13100234
-0.01980898 0.012756048 -0.008115636 0.28611052 0.6091141 0.40686527 0.46455023 0.73253435
0.52515817 0.49773037 0.43711403 0.4546208 0.12011046 0.11775201 0.16311716 0.038797718
0.18027075 0.19819535 0.16461536 0.083861895 0.1180372 0.07200457 0.058260474 -0.35336542
0.09594696 0.063435644 -0.23242052 0.15959975 -0.00092944887 -0.33647147 -0.62670565 -0.22547649
-0.18453695 -0.2397856 -0.42254078 -0.17858586 0.017599428 -0.26649967 0.061535303 0.29129314
-0.06320955 0.6598233 0.17054255 -0.027954856 0.7903076 0.12755473 -0.61199105 0.57843983
-0.022818932 -0.0640185 0.079087175 -0.051590167 -0.17715195 0.023433091 -0.12918316 -0.3354302
-0.30198035 -0.18755932 -0.4778552 -0.33565867 -0.28011933 -0.3746984 -0.50787646 -0.19484723
-0.27422407 -0.29286215 0.054627035 0.069794215 0.042777866 0.010495354 -0.056557886 0.057316434
0.087158866 -0.11106582 -0.06182955 0.039582033 -0.6132484 0.4680015 0.23115087 -0.39136797
0.48591545 0.4120127 -0.4423867 0.4677586 -0.10417742 0.014997258 0.09571424 -0.18534572
0.032206655 -0.026632361 -0.15172128 -0.10501455 0.082929954 0.30373544 0.29269335 0.34100568
0.2589649 0.14516108 0.21415809 0.2179668 0.07981961 0.25215784 -0.046694413 0.11048243
0.23517877 -0.004019505 0.005325467 0.18035363 -0.21322045 -0.1486154 0.13597523 -0.27258065
-0.5216186 0.17182344 -0.22471125 -0.424707 0.10217684 -0.36521712 -0.74003804 -0.114514686
-0.24716702 -0.17977174 0.41284752 -0.37488893 -0.14559513 0.4219852 -0.28831133 -0.1484096
0.26264906 -0.114799865 0.21019076 -0.40068555 -0.1744379 0.16434865 -0.444007 -0.19873215
0.2053241 -0.66228586 -0.6166347 -0.8798263 -0.47267637 -0.36159417 -0.44357622 -0.4911461
0.08943917 -0.059708774 0.19628468 -0.21035701 -0.28028867 -0.798407 -0.34513977 -0.49959537
-0.7183937 -0.42486706 -0.50712806 -1.0295907 -0.011693222 0.032898854 0.07183985 0.041337755
00000000: d200 533c 615f f43c 7b07 a13d cfb1 d53d
00000010: 3706 323e f9cb 093e 64c2 863d 1365 913e
00000020: 37c4 323e d2c3 893e 464c 283d ab17 3e3c
00000030: 21ab d03d 7279 aebd 13ce a6bd 8fa6 0e3e
00000040: e656 5e3c 7609 5ebd 69e3 0d3d 3701 553d
00000050: c4ea 4b3e 7727 853d 7ace d43d f661 5a3e
00000060: f04f cbbd e3e3 033e a971 ff3d 5e06 173f
00000070: f9a0 7f3d 16b9 febd a55b 243f 307f e43c
00000080: 9e9b 51be 765c 063f 9e54 0cbe 729c 3fbd
00000090: dcb6 ac3e 5497 8f3d 1724 f3be e90b 193f
000000a0: cab0 bdbc 772d 31bf 76ca c73e df80 d03d
000000b0: 5a74 cfbe 07bd 60be 408b 3d3c 7854 253f
000000c0: db6a 08bf df79 4abd eee2 ce3e 6155 24bf
000000d0: cdd5 aebe 86f0 d43e 0f44 f0bd a10e 52be
000000e0: 653b 6dbd b705 1a3e 8716 1cbe 8f63 04bf
000000f0: 881d e93e 769c 943e 1d4a 5bbe 00e9 4e3d
00000100: ebfc cc3b 6bea cf3c 48cc 053e 5b54 64bd
00000110: ec73 48be 2151 70be d595 96bd 45b9 b9bd
00000120: b397 1d3e 0d4d e13c cf01 c0bd 6dac e73d
00000130: 50ae e3bb 92b4 f23b b238 163d a082 8e3d
00000140: 2847 d7bd bb44 08bf faf4 8c3d deeb 3b3f
00000150: 7ac0 14bf 7ed6 99be 1c16 dc3e 3663 25bf
00000160: 7290 3bbd 8b6a 093f e437 4a3d 668b 6a3d
00000170: 677a d2bd 1fce d53a 607f a2bd 7a25 06be
00000180: 7146 a2bc befe 503c 72f7 04bc 147d 923e
00000190: e7ee 1b3f a550 d03e 87d9 ed3e 5f87 3b3f
000001a0: c470 063f 84d6 fe3e 69cd df3e 0fc4 e83e
000001b0: 79fc f53d f727 f13d 2f08 273e 5bea 1e3d
000001c0: e598 383e b9f3 4a3e ee90 283e c9bf ab3d
000001d0: 7dbd f13d 2277 933d 89a2 6e3d 50ec b4be
000001e0: d77f c43d 8cea 813d a5ff 6dbe 1e6e 233e
000001f0: 42a6 73ba fd45 acbe c86f 20bf 4fe3 66be
00000200: 41f7 3cbe 5b8a 75be 4457 d8be 36df 36be
00000210: ad2c 903c a572 88be 710c 7c3d 6024 953e
00000220: 0274 81bd 2eea 283f b5a2 2e3e 9501 e5bc
00000230: 9951 4a3f b59d 023e 72ab 1cbf a214 143f
00000240: c5ee babc 221c 83bd 75f8 a13d 3650 53bd
00000250: 5267 35be c1f6 bf3c 9748 04be 82bd abbe
00000260: 2b9d 9abe 8d0f 40be 70a9 f4be 74db abbe
00000270: cd6b 8fbe 78d8 bfbe 3104 02bf 0886 47be
00000280: 1967 8cbe 07f2 95be 99c0 5f3d 45f0 8e3d
00000290: d837 2f3d b5f4 2b3c 3ea9 67bd a3c4 6a3d
000002a0: 5980 b23d 7a76 e3bd fb40 7dbd c520 223d
000002b0: d9fd 1cbf e59d ef3e d0b2 6c3e 6261 c8be
000002c0: e9c9 f83e 54f3 d23e 8280 e2be 0e7e ef3e
000002d0: f95a d5bd 0fb7 753c d405 c43d 45cb 3dbe
000002e0: 20eb 033d 1c2c dabc d35c 1bbe de11 d7bd
000002f0: 2ed7 a93d 3683 9b3e e7db 953e 4c98 ae3e
00000300: 0c97 843e 1ba5 143e 424c 5b3e b032 5f3e
00000310: 7778 a33d d51a 813e a442 3fbd 9d44 e23d
00000320: b4d2 703e 0db6 83bb 4181 ae3b 9fae 383e
00000330: 7656 5abe a32e 18be 173d 0b3e b18f 8bbe
00000340: cc88 05bf 7cf2 2f3e b51a 66be 3273 d9be
00000350: 1742 d13d bdfd babe 2273 3dbf ad86 eabd
00000360: 5a19 7dbe 1516 38be c060 d33e 71f1 bfbe
00000370: e416 15be 720e d83e 8b9d 93be b0f8 17be
00000380: f079 863e 311c ebbd 3f3c 573e a826 cdbe
00000390: d99f 32be 034b 283e e354 e3be 7180 4bbe
000003a0: 7b40 523e 918b 29bf c6db 1dbf 4c3c 61bf
000003b0: a302 f2be df22 b9be 6c1c e3be 8077 fbbe
000003c0: e22b b73d 3091 74bd dafe 483e d467 57be
000003d0: ff81 8fbe 6764 4cbf 29b6 b0be f7ca ffbe
000003e0: a6e8 37bf 2d88 d9be 25d3 01bf a1c9 83bf
000003f0: ee94 3fbc f3c0 063d c520 933d c751 293d

convolution_layer_1.3.bias f4 [10]
-0.014774434 0.5894092 -0.30191442 -0.022870736 0.21872644 -0.095356464 -0.22590043 -0.6836683
-0.56733686 0.1957605
00000000: 7810 72bc 85e3 163f 8794 9abe 695b bbbc
00000010: d3f9 5f3e 404a c3bd 7152 67be e304 2fbf
00000020: fd3c 11bf 7175 483e

convolution_layer_1.4.weight f4 [10]
1.0833656 0.82167244 0.80936396 0.41857576 0.86868 1.4526808 0.747484 0.8714649
1.3987054 1.4925703
00000000: b9ab 8a3f 2059 523f 7a32 4f3f 904f d63e
00000010: d061 5e3f 72f1 b93f 1d5b 3f3f 5318 5f3f
00000020: c708 b33f 8b0c bf3f

convolution_layer_1.4.bias f4 [10]
-0.27502728 -0.13895068 0.0750359 -0.6084089 -0.1527779 -0.40354976 -0.1430024 -0.044243544
-0.7464944 -0.36417454
00000000: 60d0 8cbe 1649 0ebe 6cac 993d b0c0 1bbf
00000010: cf71 1cbe 139e cebe 396f 12be b838 35bd
00000020: 421a 3fbf 1675 babe

convolution_layer_1.4.running_mean f4 [10]
-0.61568063 2.2193398 -7.3960724 -3.01696 -4.640508 -1.253165 0.94438237 -8.388415
-5.8203955 -2.466773
00000000: 3f9d 1dbf aa09 0e40 a0ac ecc0 df15 41c0
00000010: 0b7f 94c0 b667 a0bf 0bc3 713f f336 06c1
00000020: ae40 bac0 9cdf 1dc0

convolution_layer_1.4.running_var f4 [10]
23.822212 26.288715 28.129137 11.802026 20.957596 10.099418 23.46921 42.33555
31.48304 32.695293
00000000: e493 be41 4a4f d241 7908 e141 19d5 3c41
00000010: 28a9 a741 3797 2141 f1c0 bb41 9a57 2942
00000020: 44dd fb41 fbc7 0242

convolution_layer_2.0.weight f4 [10, 10, 3, 3]
-0.40002093 -0.011426426 0.10738703 -0.4731677 -0.36192936 -0.29467025 -0.4887083 -0.23218279
-0.3207779 -0.012834577 0.012685817 -0.14621031 -0.04910911 0.06554459 -0.19335398 0.07125352
0.24828433 -0.09717421 0.50045246 0.23879635 0.4156946 0.2391029 0.15902999 0.22672252
0.5364737 0.39227197 0.2907922 -0.41068816 -0.13232209 -0.075378925 -0.42667273 -0.16940995
0.010621294 -0.55562246 -0.3575102 -0.24210809 -0.12543269 0.26162297 0.2517919 -0.34054723
-0.07447583 -0.02221676 -0.24625282 0.05049732 -0.06234311 0.6814428 0.48326504 0.33719414
0.42374632 0.2261206 0.044154122 0.69514066 0.4822205 0.44043595 -0.50444764 -0.45286927
-0.5320928 -0.5361248 -0.36836344 -0.45778465 -0.37154046 -0.38191184 -0.28853455 0.77165514
0.31249598 0.68576396 0.2873798 0.038563203 0.24120073 0.2608026 -0.043364406 0.36909956
-0.45332235 -0.7398926 -0.58911765 -0.54879224 -0.7627383 -0.7977082 -0.75112474 -0.81488687
-0.6808399 0.343173 -0.041989747 0.22862253 0.030714614 -0.08283027 0.037143394 0.029408514
-0.14266953 -0.013627561 -0.15341218 -1.1340661 0.10797337 0.054948382 -0.6502509 0.30952775
0.15693139 -0.67253417 0.67812383 -0.19747126 -0.31505945 0.014872711 0.15564129 -0.25401443
0.098337725 0.18418628 -0.40252152 0.08600544 0.18636304 0.13625462 0.1875842 0.33767396
0.39909035 0.53499913 0.20924915 0.53319967 0.39816624 -0.007188078 0.09414105 -0.07258134
-0.08285648 0.05756663 -0.22285962 -0.18460041 -0.04646752 -0.39370814 -0.22001176 -0.4979148
0.30168456 -0.027930802 -0.396735 0.40036246 -0.03632065 -0.26423445 0.659116 -0.16549848
-0.11590826 -0.030068092 0.09861738 0.0730608 0.20134175 0.24424717 0.34350985 0.4205441
-0.81369424 -0.84299856 -0.6575669 -0.5804565 -0.603724 -0.6878881 -0.43734443 -0.62045634
-0.5997491 -0.7163029 0.107095726 -0.99792975 -0.39145902 0.30803478 -0.8367331 -0.107953325
0.55270946 -0.8523272 0.90021604 1.017409 0.71114403 0.300054 0.6728231 0.25755042
0.6556783 0.60455084 0.51134354 -0.3998532 -0.025319757 -0.3877082 -0.02113347 0.16623273
-0.1668346 0.18014877 0.35033393 0.20329182 0.3616702 -0.21239556 -0.23571344 0.30407766
-0.11416894 -0.10097664 0.34975994 -0.26719573 -0.32977113 0.19334611 -0.32860208 -0.5682188
0.28289774 -0.39769655 -0.19815291 0.4073936 -0.2660754 -0.23239242 -0.15389897 -0.14049646
-0.17009565 -0.21262017 -0.07659544 -0.2617836 -0.17273179 -0.15924269 -0.22890308 0.15780286
0.1756739 0.37477112 0.15762019 0.22276507 0.4068744 0.14788418 0.23053205 0.4158798
0.13978192 -0.2585474 0.08517644 0.13372555 -0.26999232 0.1845132 0.16955881 -0.32735288
-0.10240397 -0.54547656 -0.80113405 -0.6393464 -0.5750473 -0.6786551 -0.56969875 -0.67096126
-0.796333 -0.78609234 0.08352984 0.11254534 0.17350075 0.00954658 0.12657237 0.09680651
0.19958483 0.31653982 0.30592555 0.46504974 0.4435519 0.44944987 0.30113304 0.41324124
0.13155846 0.15618482 0.19003536 0.17124188 -0.67187226 -0.84167415 -0.89502275 -0.4214814
00000000: 8bcf ccbe e735 3bbc bbed db3d 0943 f2be
00000010: ce4e b9be 05df 96be f937 fabe 53c1 6dbe
00000020: 003d a4be 1e48 52bc 2cd8 4f3c 28b8 15be
00000030: a226 49bd 3e3c 863d 96fe 45be 5eed 913d
00000040: 3f3e 7e3e 4603 c7bd a71d 003f 0887 743e
00000050: ecd5 d43e 64d7 743e c2d8 223e f329 683e
00000060: 5756 093f dfd7 c83e b7e2 943e b845 d2be
00000070: 717f 07be 4460 9abd d974 dabe cd79 2dbe
00000080: f004 2e3c 463d 0ebf 940b b7be 2feb 77be
00000090: 6d71 00be 72f3 853e deea 803e 355c aebe
000000a0: c986 98bd ecff b5bc b329 7cbe 47d6 4e3d
000000b0: 7d5b 7fbd 0973 2e3f 846e f73e b6a4 ac3e
000000c0: 47f5 d83e 298c 673e f4da 343d bdf4 313f
000000d0: 9be5 f63e d280 e13e 7b23 01bf 7bde e7be
000000e0: 3c37 08bf 7a3f 09bf 229a bcbe c062 eabe
000000f0: 8d3a bebe f389 c3be cdba 93be 318b 453f
00000100: 79ff 9f3e 3a8e 2f3f 7223 933e 73f4 1d3d
00000110: 53fd 763e eb87 853e e09e 31bd 9efa bc3e
00000120: de19 e8be 9a69 3dbf 6ad0 16bf a67d 0cbf
00000130: d142 43bf 9b36 4cbf b649 40bf 6d9c 50bf
00000140: 864b 2ebf 5fb4 af3e 71fd 2bbd 061c 6a3e
00000150: 379d fb3c eba2 a9bd ac23 183d 20ea f03c
00000160: f617 12be 2246 5fbc 1518 1dbe 1429 91bf
00000170: 2421 dd3d 8e11 613d d876 26bf 6c7a 9e3e
00000180: 9fb2 203e 332b 2cbf 8699 2d3f e835 4abe
00000190: 794f a1be acac 733c 6e60 1f3e 2e0e 82be
000001a0: 4a65 c93d 549b 3c3e 4d17 cebe 9f23 b03d
000001b0: f4d5 3e3e 5586 0b3e 1316 403e 9ae3 ac3e
000001c0: 9255 cc3e b4f5 083f 6945 563e c67f 083f
000001d0: 72dc cb3e f889 ebbb 06cd c03d 87a5 94bd
000001e0: a8b0 a9bd fdca 6b3d 5035 64be e407 3dbe
000001f0: ba54 3ebd 1d94 c9be c34a 61be b0ee febe
00000200: 6676 9a3e 23cf e4bc da20 cbbe 4ffc cc3e
00000210: f6c4 14bd bd49 87be d4bb 283f 6f78 29be
00000220: 4f61 edbd 5c51 f6bc e9f7 c93d e7a0 953d
00000230: 882c 4e3e ee1b 7a3e 86e0 af3e 8e51 d73e
00000240: 444e 50bf c1ce 57bf 4e56 28bf cc98 14bf
00000250: a88d 1abf 6f19 30bf 9ceb dfbe 3ad6 1ebf
00000260: 2889 19bf a05f 37bf 0155 db3d 5378 7fbf
00000270: 516d c8be bcb6 9d3e 2434 56bf a216 ddbd
00000280: 5e7e 0d3f 1e32 5abf 8f74 663f 753a 823f
00000290: 890d 363f aea0 993e 223e 2c3f a6dd 833e
000002a0: 88da 273f d8c3 1a3f 69e7 023f 8fb9 ccbe
000002b0: 616b cfbc b081 c6be 1920 adbc ea38 2a3e
000002c0: b0d6 2abe eb78 383e f85e b33e bb2b 503e
000002d0: d62c b93e 397e 59be dd5e 71be 11b0 9b3e
000002e0: 68d1 e9bd d7cc cebd bc13 b33e e1cd 88be
000002f0: c3d7 a8be 86fc 453e 883e a8be ca76 11bf
00000300: f9d7 903e e29e cbbe 99e8 4abe e595 d03e
00000310: 093b 88be 47f8 6dbe b197 1dbe 4ede 0fbe
00000320: 8e2d 2ebe 1ab9 59be 12de 9cbd 8008 86be
00000330: 9ae0 30be 8410 23be 9265 6abe 1397 213e
00000340: dce3 333e 00e2 bf3e 3067 213e 871c 643e
00000350: d751 d03e f36e 173e 9810 6c3e 32ee d43e
00000360: fe22 0f3e 5360 84be fc70 ae3d 5aef 083e
00000370: 6f3c 8abe 07f1 3c3e d3a0 2d3e cc9a a7be
00000380: 2cb9 d1bd 5aa4 0bbf 1f17 4dbf 35ac 23bf
00000390: 4d36 13bf 57bc 2dbf c7d7 11bf 1ec4 2bbf
000003a0: 7bdc 4bbf 593d 49bf b111 ab3d 2c7e e63d
000003b0: 2eaa 313e 4269 1c3c 309c 013e 7e42 c63d
000003c0: f75f 4c3e 8211 a23e 46a2 9c3e 001b ee3e
000003d0: 3c19 e33e 4b1e e63e 1c2e 9a3e 5b94 d33e
000003e0: 43b7 063e eaee 1f3e a198 423e 085a 2f3e
000003f0: d2ff 2bbf f577 57bf 3620 65bf 69cc d7be

convolution_layer_2.0.bias f4 [10]
-0.1515187 0.13481532 0.32148793 -0.021226566 0.50738066 -0.25601408 -0.5639882 0.15210643
-1.0663016 0.25430262
00000000: b827 1bbe 070d 0a3e 119a a43e 56e3 adbc
00000010: b3e3 013f 4714 83be 8861 10bf cac1 1b3e
00000020: 927c 88bf f433 823e

convolution_layer_2.1.weight f4 [10]
1.1188952 1.1819177 1.3378003 0.94860446 1.1707609 0.9282652 1.5597245 0.88613313
1.6006769 1.0119307
00000000: f537 8f3f 1449 973f 0a3d ab3f bed7 723f
00000010: 7edb 953f caa2 6d3f 0da5 c73f 9fd9 623f
00000020: fbe2 cc3f f286 813f

convolution_layer_2.1.bias f4 [10]
0.25498894 0.18346843 -0.24534243 -0.06556736 -0.46653745 -0.49035224 -0.46045122 0.54215133
0.22337636 -0.26094857
00000000: e98d 823e 26df 3b3e 0c3b 7bbe 2e48 86bd
00000010: ffdd eebe 730f fbbe 43c0 ebbe 6eca 0a3f
00000020: c6bc 643e 0d9b 85be

convolution_layer_2.1.running_mean f4 [10]
1.5678775 0.2885234 -6.985649 4.802234 1.075903 -0.548194 -7.1575723 -7.2199154
-9.3418455 -2.4756107
00000000: 36b0 c83f 57b9 933e 708a dfc0 e7ab 9940
00000010: 31b7 893f 7156 0cbf d50a e5c0 8c09 e7c0
00000020: 3378 15c1 6870 1ec0

convolution_layer_2.1.running_var f4 [10]
31.469622 32.007626 58.3682 53.7433 20.513313 23.389471 62.02677 72.663734
92.45839 25.117367
00000000: c9c1 fb41 cf07 0042 0979 6942 24f9 5642
00000010: 441b a441 a31d bb41 6a1b 7842 d553 9142
00000020: b2ea b842 5ef0 c841

convolution_layer_2.3.weight f4 [10, 10, 3, 3]
0.015338161 -0.31143388 -0.21564549 0.079573385 -0.22995695 -0.053063747 0.10891386 -0.27825907
-0.24615903 -0.23249552 0.24252221 -0.16746065 -0.4311441 -0.14263187 -0.27519166 -0.1082792
0.05752592 -0.1401915 -0.14642225 -0.12864192 0.07688117 -0.17554842 0.19484472 0.3738052
-0.22290988 -0.029934274 0.27235335 -0.31122455 -0.12207289 -0.101071484 -0.044218246 -0.012923385
-0.26637235 0.15986493 0.002420682 -0.10531577 -0.30425137 0.11005784 -0.59306806 -0.024874214
1.1573442 0.06590346 -0.26419663 1.1071776 0.2192746 0.06690345 -0.03245167 -0.90587777
0.40423697 0.5202996 -0.45051283 -0.5136627 -0.084641054 -0.44042012 0.7643092 -0.20145737
-0.19983573 0.7254417 -0.3432218 -0.46199214 0.27954048 -0.36593962 -0.30100727 -0.5033727
-0.18718712 0.11528814 -0.73872507 -0.40486708 0.0645254 -0.4658274 -0.28793472 0.14314719
-0.4692921 -0.38795015 0.502651 -0.562147 -0.31415772 0.32655814 -0.44156736 -0.17142078
0.33891425 0.13426055 0.11105363 -0.43417093 0.3221759 0.7696693 0.23912139 0.18097696
0.9872053 0.5668413 -0.37940496 -0.49869168 -0.42170304 -0.32108802 -0.30382812 -0.3768244
-0.40201864 -0.4766261 -0.4282453 0.45345858 0.589413 0.6036524 -0.17295602 0.41661832
0.37393636 0.46077177 0.5122323 0.8287307 -0.42407206 -0.48521522 -0.5724983 -0.15874471
-0.33562234 -0.057243798 -0.43594667 -0.3136399 -0.54954743 -0.055856097 0.19804147 0.118816175
0.098560646 0.14409402 0.048425037 0.14085613 0.15723261 0.07556894 -0.47105557 -0.31780735
-0.53671527 -0.4881131 -0.30499223 -0.42282695 -0.50029945 -0.35802105 -0.3838168 -0.73494726
-0.4783876 -0.46791118 -0.44374788 -0.30204636 -0.33804896 -0.62940776 -0.5185786 -0.6177851
0.17982316 0.12011684 0.43652764 -0.21220575 0.017983561 0.32201535 0.07838308 0.11928415
0.571689 0.19888985 0.23194352 0.17918149 0.17507745 0.15583356 0.18576862 0.06237608
0.20498018 0.14355163 1.3045465 1.256524 1.1961185 0.0042101447 0.13516548 -0.118989944
0.75069976 0.7172853 0.6090898 0.50793403 0.44255182 0.4686239 -0.37004742 -0.27176714
-0.42042542 -0.032911386 0.20525695 0.0684273 -0.76005137 -0.600435 -0.7127404 -0.5771786
-0.66358435 -0.686483 -0.3678138 -0.56020576 -0.34626824 -0.26387826 -0.18053928 -0.42602265
-0.42690548 -0.08644534 -0.2753369 -0.2643754 0.35166338 -0.04023974 0.22100383 -0.15600644
-0.38501832 0.29834512 0.054206453 -0.3798991 0.39694247 -0.09828975 -0.3372268 -0.34453386
-0.50018543 -0.39167213 -0.0031468621 -0.42305985 -0.35834804 0.29715094 0.12984523 0.05012245
-0.5172682 -0.30950725 0.10702909 -0.5617355 -0.16028257 0.03578858 -0.30852214 -0.09019147
0.3583537 0.016016563 -0.054582886 0.22040604 -0.17045839 -0.19533965 0.24315824 -0.40785208
-0.3968303 0.17617595 0.04163741 0.59227186 0.572358 -0.09682856 0.6694182 0.5814994
-0.070023604 0.50132465 0.47198156 0.97669536 0.5934538 0.38049194 1.1434113 0.50830615
0.2045184 0.82337594 0.21209377 -0.0007004675 0.09160305 -0.16583626 -0.27073878 -0.08950199
00000000: e94c 7b3c 4374 9fbe 2cd2 5cbe 5ff7 a23d
00000010: d679 6bbe 5f59 59bd 3b0e df3d f977 8ebe
00000020: 1d11 7cbe 4e13 6ebe be57 783e ce7a 2bbe
00000030: ebbe dcbe 170e 12be ece5 8cbe 7cc1 ddbd
00000040: 4da0 6b3d 5c8e 0fbe b7ef 15be b5ba 03be
00000050: e073 9d3d f7c2 33be 6085 473e 6563 bf3e
00000060: 7d42 64be b938 f5bc e671 8b3e d358 9fbe
00000070: 5a01 fabd 91fe cebd 311e 35bd 9bbc 53bc
00000080: f561 88be a2b3 233e 4ea4 1e3b cbaf d7bd
00000090: d6c6 9bbe 0166 e13d 4fd3 17bf 02c5 cbbc
000000a0: db23 943f 65f8 863d c844 87be ffb7 8d3f
000000b0: 8589 603e ad04 893d 0bec 04bd 9be7 67bf
000000c0: 26f8 ce3e 5b32 053f 9ea9 e6be 667f 03bf
000000d0: 4a58 adbd bf7e e1be c5a9 433f d74a 4ebe
000000e0: bda1 4cbe 8cb6 393f c5ba afbe 3c8a ecbe
000000f0: ee1f 8f3e 705c bbbe a01d 9abe 09dd 00bf
00000100: fbad 3fbe 301c ec3d 161d 3dbf bd4a cfbe
00000110: e525 843d ee80 eebe 2e6c 93be 2d95 123e
00000120: 0e47 f0be 67a1 c6be bcad 003f dee8 0fbf
00000130: 48d9 a0be a132 a73e 1e15 e2be ee88 2fbe
00000140: 2b86 ad3e 997b 093e 1670 e33d a74b debe
00000150: 3df4 a43e 0c09 453f 3ddc 743e 0652 393e
00000160: 7db9 7c3f 831c 113f 5e41 c2be 8454 ffbe
00000170: 76e9 d7be a665 a4be 5c8f 9bbe 21ef c0be
00000180: 63d5 cdbe 5608 f4be f842 dbbe b92b e83e
00000190: c5e3 163f f788 1a3f 621b 31be ff4e d53e
000001a0: 9674 bf3e 47ea eb3e a821 033f b227 543f
000001b0: f91f d9be 216e f8be 408f 12bf f98d 22be
000001c0: b1d6 abbe 7978 6abd 6734 dfbe 6995 a0be
000001d0: 24af 0cbf 5dc9 64bd 62cb 4a3e e555 f33d
000001e0: 2ada c93d 628d 133e 5559 463d 973c 103e
000001f0: 9601 213e e3c3 9a3d 322e f1be a5b7 a2be
00000200: 2c66 09bf f6e9 f9be f127 9cbe c67c d8be
00000210: a013 00bf 894e b7be a383 c4be 8125 3cbf
00000220: 38ef f4be 0e92 efbe ec32 e3be d2a5 9abe
00000230: c114 adbe de20 21bf 91c1 04bf 2a27 1ebf
00000240: 9023 383e d1ff f53d 8d80 df3e 774c 59be
00000250: 4352 933c 32df a43e 4f87 a03d 404b f43d
00000260: 365a 123f c8a9 4b3e 9a82 6d3e 5a7b 373e
00000270: 8147 333e d592 1f3e 213a 3e3e 0f7e 7f3d
00000280: 53e6 513e 33ff 123e 61fb a63f c7d5 a03f
00000290: 691a 993f 41f5 893b d268 0a3e 00b1 f3bd
000002a0: dc2d 403f 02a0 373f 4fed 1b3f f707 023f
000002b0: 2796 e23e 79ef ef3e db76 bdbe 1025 8bbe
000002c0: 0042 d7be 17ce 06bd e12e 523e 9d23 8c3d
000002d0: ba92 42bf 1cb6 19bf 2876 36bf fac1 13bf
000002e0: aae0 29bf 5abd 2fbf 1752 bcbe a569 0fbf
000002f0: 124a b1be 0d1b 87be 4adf 38be a41f dabe
00000300: 5b93 dabe 410a b1bd f5f8 8cbe 365c 87be
00000310: 390d b43e 6dd2 24bd d44e 623e 27c0 1fbe
00000320: 1f21 c5be b1c0 983e 9607 5e3d 2382 c2be
00000330: 0b3c cb3e 234c c9bd fea8 acbe be66 b0be
00000340: 270c 00bf 4089 c8be 963b 4ebb 4d9b d8be
00000350: 6579 b7be 2b24 983e 26f6 043e 334d 4d3d
00000360: b06b 04bf bc77 9ebe 1132 db3d e6cd 0fbf
00000370: 1d21 24be 0c97 123d 9df6 9dbe 4eb6 b8bd
00000380: 237a b73e 2b35 833c 4e92 5fbd 1fb2 613e
00000390: a58c 2ebe 1e07 48be 79fe 783e fdd1 d0be
000003a0: 572d cbbe 7867 343e fd8b 2a3d 219f 173f
000003b0: 0e86 123f 0d4e c6bd fe5e 2b3f 25dd 143f
000003c0: 8968 8fbd d056 003f 91a7 f13e b508 7a3f
000003d0: 97ec 173f d7cf c23e 4d5b 923f 5a20 023f
000003e0: 456d 513e c4c8 523f 1c2f 593e 949f 37ba
000003f0: 619a bb3d fbd0 29be 469e 8abe d24c b7bd

convolution_layer_2.3.bias f4 [10]
-0.18953653 0.09024979 -0.14002842 -0.8419678 -0.22577007 -0.14599054 -0.24660367 -0.12621747
0.50526005 -0.27819264
00000000: dd15 42be e2d4 b83d 9c63 0fbe 348b 57bf
00000010: 4530 67be 8b7e 15be ac85 7cbe 273f 01be
00000020: b958 013f 446f 8ebe

convolution_layer_2.4.weight f4 [10]
0.9614166 0.9729599 0.7509152 1.101599 0.79688513 1.6026419 0.6956164 0.88698506
0.8321794 1.253726
00000000: 661f 763f e613 793f fb3b 403f 3201 8d3f
00000010: aa00 4c3f 5f23 cd3f eb13 323f 7411 633f
00000020: b609 553f 187a a03f

convolution_layer_2.4.bias f4 [10]
-0.96210563 -0.7114124 -0.495129 -0.67737633 -0.73584604 -1.6454005 -0.4655333 -0.5633372
-0.308694 -1.1320101
00000000: 8e4c 76bf 1f1f 36bf 8c81 fdbe 8968 2dbf
00000010: 6860 3cbf 7c9c d2bf 615a eebe de36 10bf
00000020: 240d 9ebe b5e5 90bf

convolution_layer_2.4.running_mean f4 [10]
-3.5510674 3.8494666 -3.3380754 -13.40987 -1.9716866 -6.4251404 5.2819757 -0.77644
-7.2789955 -6.6114535
00000000: b044 63c0 a95d 7640 07a3 55c0 d48e 56c1
00000010: 3a60 fcbf c09a cdc0 f205 a940 c6c4 46bf
00000020: 88ed e8c0 0791 d3c0

convolution_layer_2.4.running_var f4 [10]
9.095355 38.88787 31.313013 23.179903 14.9086275 10.138134 50.519993 32.437153
17.1167 21.987995
00000000: 9386 1141 2e8d 1b42 0d81 fa41 7170 b941
00000010: bd89 6e41 cc35 2241 7914 4a42 a5bf 0142
00000020: 00ef 8841 6ae7 af41

classification_layer.1.weight f4 [10, 13690]
0.4145108 -0.1058914 -0.69693255 -0.29476804 -0.31612986 -1.0037092 -0.34546205 -0.0052761743
-0.3263468 -0.39750323 0.51192325 0.29754564 0.46744004 -0.53770167 -0.1376901 -0.113853194
-0.05815378 0.021377765 -0.17364846 0.26648676 -0.120720536 -0.102485 0.013245663 0.12634718
0.06748251 -0.05816851 -0.315359 -0.37261826 -0.332174 -0.5435976 -0.31901217 -0.72085655
-0.00061933615 0.04620763 0.13141246 -0.18706806 -0.3366901 0.43230236 -0.15252517 -0.42003325
-0.42242232 -0.16033497 -0.45497984 -0.52326196 0.20944881 0.030605609 -0.32714084 -0.18666497
-0.025908321 -0.021688309 -0.37157413 0.040910296 0.27906775 -0.09388894 0.015098818 -0.27259296
0.26310578 0.0017503649 -0.11156596 0.07271553 0.040059075 -0.0041246074 -0.18879586 0.13239387
-0.31060567 0.037245806 0.020553542 -0.032683898 -0.42755312 0.051073577 0.043069508 0.33224374
0.14904138 0.06278882 0.4189768 0.023749085 -0.45945466 -0.093200386 0.05555626 -0.27790254
-0.09677241 0.075515546 -0.23809594 -0.48370987 0.12746891 -0.20590374 0.07929697 0.00941343
0.32259107 0.26195577 -0.41348475 0.2700298 -0.26636598 -0.22029759 -0.09375416 -0.0068838485
0.0986497 -0.048278783 0.043429397 -0.06802298 0.322469 -0.18190046 0.085938655 -0.12463376
-0.11239709 -0.23067708 -0.21373554 -0.37282574 -0.10183465 0.5592815 -0.21601807 0.37883633
-0.12228786 -0.27405724 -1.0606681 -0.24199727 0.20671074 -0.5317926 0.2567335 0.2547149
-0.18114904 -0.32971874 0.27966312 0.38428268 -0.07880054 -0.12928644 -0.015690064 -0.24442005
0.31202242 -0.2987637 -0.14551046 -0.0053914445 0.034259528 0.12710065 -0.14206856 0.13416307
0.12681554 0.14452685 -0.24250059 -0.078862004 0.011139026 0.22598235 -0.19046833 0.17236827
0.048057124 -0.12591664 -0.055203363 0.035010833 0.42101508 -0.25111458 0.3481674 -0.33158177
-0.08870682 0.082797945 -0.25626856 -0.06714159 0.41353068 -0.33034152 -0.17419331 0.50512075
-0.009047465 -0.03508121 0.18942423 0.01054612 -0.3263842 0.22396512 -0.12653162 0.37160727
0.10233901 -0.051683553 0.28750405 -0.11939589 -0.1295763 -0.21723533 -0.3166029 -0.14654812
0.07543845 -0.018556733 0.27485767 -0.11379422 0.18456578 0.044973023 -0.25256243 -0.6324882
0.062687874 0.440304 -0.23292898 0.42305318 -0.42855895 0.32137382 -0.19619192 -0.71488655
-0.19334036 0.21221507 -0.55673736 0.027149118 0.43806085 0.64804715 0.27006876 0.17877351
-0.100556135 -0.39698187 -0.29546416 0.19422668 -0.33228803 0.13287856 0.0048821876 0.053705465
0.21416102 0.07604925 -0.026498351 -0.4376089 -0.11698705 -0.36210683 -0.10478182 0.04787556
-0.1318076 -0.025376895 -0.548368 0.06416754 -0.43708557 -0.09332929 0.07139785 -0.29638582
0.31317812 -0.009810516 -0.022178935 0.036445156 -0.38677272 -0.07485051 -0.2685791 -0.052661456
0.28391343 0.6911707 0.9151467 0.14322653 0.23117459 -0.15547699 -0.15182467 -0.32349512
-0.25133958 -0.39918572 0.13287337 0.16430338 -0.107333176 -0.09764976 0.37464532 0.3251462
-0.13669263 -0.37570563 -0.44058055 -0.37973335 0.12623408 -0.2686132 -0.10137217 0.0113708265
00000000: c23a d43e 97dd d8bd 2c6a 32bf d6eb 96be
00000010: c6db a1be 8b79 80bf 67e0 b0be c2e3 acbb
00000020: ee16 a7be 8b85 cbbe 670d 033f e757 983e
00000030: 4d54 ef3e d1a6 09bf a2fe 0cbe dd2b e9bd
00000040: a832 6ebd 6c20 af3c e7d0 31be f470 883e
00000050: 543c f7bd a8e3 d1bd 5604 593c 2861 013e
00000060: 4534 8a3d 1b42 6ebd bc76 a1be d2c7 bebe
00000070: b612 aabe 3629 0bbf 9055 a3be 0e8a 38bf
00000080: f25a 22ba 3644 3d3d fd90 063e c58e 3fbe
00000090: a562 acbe bc56 dd3e 8f2f 1cbe 990e d7be
000000a0: bd47 d8be da2e 24be 1ef3 e8be 7ff4 05bf
000000b0: c079 563e 9db8 fa3c 017f a7be 1a25 3fbe
000000c0: b03d d4bc aeab b1bc f73e bebe 8e91 273d
000000d0: f8e1 8e3e d848 c0bd 0861 773c 4e91 8bbe
000000e0: cdb5 863e 806c e53a b27c e4bd e1eb 943d
000000f0: fc14 243d b727 87bb b453 41be 4292 073e
00000100: b507 9fbe 0f8f 183d e75f a83c 8ddf 05bd
00000110: 3ee8 dabe 8732 513d a769 303d da1b aa3e
00000120: 4e9e 183e 6d97 803d 2184 d63e 718d c23c
00000130: a43d ebbe d8df bebd f68e 633d 3e49 8ebe
00000140: 9d30 c6bd e5a7 9a3d 6ccf 73be d2a8 f7be
00000150: 3687 023e 6ed8 52be 7366 a23d c93a 1a3c
00000160: a82a a53e 111f 863e 46b4 d3be 5941 8a3e
00000170: 1f61 88be b195 61be 2e02 c0bd e891 e1bb
00000180: db08 ca3d f9bf 45bd 06e3 313d a24f 8bbd
00000190: a81a a53e 1d44 3abe 9b00 b03d fc3f ffbd
000001a0: 7230 e6bd 9d36 6cbe 7ddd 5abe 04e3 bebe
000001b0: af8e d0bd 132d 0f3f d733 5dbe d6f6 c13e
000001c0: 0f72 fabd 3b51 8cbe f9c3 87bf 22ce 77be
000001d0: fbab 533e 8f23 08bf 9372 833e fe69 823e
000001e0: 227f 39be e5d0 a8be 0130 8f3e b3c0 c43e
000001f0: 2d62 a1bd aa63 04be 7388 80bc 4049 7abe
00000200: 67c1 9f3e 8ef7 98be b200 15be b7aa b0bb
00000210: b853 0c3d ac26 023e 6c7a 11be 0b62 093e
00000220: efdb 013e d9fe 133e 1352 78be 6782 a1bd
00000230: 7680 363c eb67 673e 210a 43be 4f81 303e
00000240: 8cd7 443d 4bf0 00be ec1c 62bd 8567 0f3d
00000250: 4a8f d73e 1792 80be ff42 b23e 16c5 a9be
00000260: ecab b5bd f891 a93d a235 83be 8881 89bd
00000270: 4bba d33e 8622 a9be bb5f 32be 984f 013f
00000280: d23b 14bc 51b1 0fbd 6df8 413e a2c9 2c3c
00000290: d41b a7be 1d57 653e 8191 01be 4f43 be3e
000002a0: 1d97 d13d 22b2 53bd bb33 933e d585 f4bd
000002b0: a6af 04be f072 5ebe c619 a2be b610 16be
000002c0: 797f 9a3d 4a04 98bc 25ba 8c3e f20c e9bd
000002d0: d0fe 3c3e a235 383d dd4f 81be bfea 21bf
000002e0: 8062 803d 876f e13e ef84 6ebe 6d9a d83e
000002f0: 146c dbbe 1c8b a43e 89e6 48be ce02 37bf
00000300: 04fb 45be e84e 593e 5786 0ebf d467 de3c
00000310: 8349 e03e 6be6 253f 7446 8a3e 6710 373e
00000320: 60f0 cdbd 3541 cbbe 1447 97be 5ce3 463e
00000330: a821 aabe 5111 083e c2fa 9f3b 43fa 5b3d
00000340: 074d 5b3e b6bf 9b3d 1213 d9bc 460e e0be
00000350: e896 efbd 1166 b9be da97 d6bd 2a19 443d
00000360: 92f8 06be 35e3 cfbc d861 0cbf 456a 833d
00000370: aec9 dfbe 6d23 bfbd 0939 923d e2bf 97be
00000380: e258 a03e 49bc 20bc 99b0 b5bc 8447 153d
00000390: 1307 c6be 394b 99bd 3383 89be 8ab3 57bd
000003a0: 1a5d 913e 90f0 303f 0e47 6a3f faa9 123e
000003b0: 08b9 6c3e 5c35 1fbe ed77 1bbe 27a1 a5be
000003c0: 95af 80be 1262 ccbe f50f 083e 253f 283e
000003d0: 7fd1 dbbd 99fc c7bd 83d1 bf3e 9079 a63e
000003e0: 27f9 0bbe 7d5c c0be c693 e1be 696c c2be
000003f0: 8243 013e ab87 89be 369c cfbd b44c 3a3c

classification_layer.1.bias f4 [10]
0.008306224 0.0037163687 0.005738 0.013834267 0.0014279446 -0.02014845 -0.00092408934 -0.005543294
-0.014528077 0.001990675
00000000: d416 083c 528e 733b d505 bc3b 1fa9 623c
00000010: df29 bb3a 5d0e a5bc 963e 72ba 85a4 b5bb
00000020: 2c07 6ebc fc75 023b

classification_layer.2.weight f4 [10]
2.187443 1.9283004 2.2274811 2.0907183 2.104391 2.0543659 2.4836555 2.2091498
2.8890126 2.0659635
00000000: 11ff 0b40 8cd2 f63f 0d8f 0e40 54ce 0540
00000010: 58ae 0640 bb7a 0340 36f4 1e40 b662 0d40
00000020: 95e5 3840 bf38 0440

classification_layer.2.bias f4 [10]
0.07523045 0.6843855 -0.16308513 -0.12415431 0.5570393 0.9753056 -0.13746706 -0.6506476
-0.17727502 0.16594784
00000000: 6c12 9a3d e333 2f3f caff 26be 9d44 febd
00000010: 219a 0e3f a1ad 793f 2ac4 0cbe d790 26bf
00000020: 9587 35be 3bee 293e

classification_layer.2.running_mean f4 [10]
-4.802679 41.201984 -5.5895066 37.412857 -38.513836 67.65907 -16.218792 -53.26156
-29.713026 -1.7248987
00000000: 8caf 99c0 d5ce 2442 3ddd b2c0 c4a6 1542
00000010: 2b0e 1ac2 7251 8742 16c0 81c1 d60b 55c2
00000020: 47b4 edc1 7bc9 dcbf

classification_layer.2.running_var f4 [10]
8587.881 13308.926 7738.4253 9049.323 9972.127 9857.431 14531.991 9632.863
17899.055 7153.7705
00000000: 862f 0646 b4f3 4f46 67d3 f145 4b65 0d46
00000010: 82d0 1b46 b905 1a46 f70f 6346 7483 1646
00000020: 1cd6 8b46 2a8e df45

classification_layer.5.weight f4 [10, 10]
0.67832965 0.6413664 -0.11241533 0.59469384 0.5984057 0.7785156 -1.2211332 -0.68185484
-1.0322913 -0.4430949 -0.7685159 -0.80997306 0.81992966 0.703408 -1.1237869 0.031557523
-1.1713985 1.085736 -0.83405185 0.7663095 -0.1677833 -1.0766965 -0.41372648 -0.41739628
0.38523552 -0.92419463 0.73416394 -0.5416616 0.8163076 0.35714653 0.58248323 -0.8092115
-0.8173405 0.1687162 -0.13424326 -1.2978414 0.4703706 0.7173837 0.68856883 -1.1179535
0.790311 0.52215534 -0.45986167 -0.92971516 -0.9096089 0.4877009 0.6855186 -0.5693664
0.8389381 -0.08040601 -0.167076 0.6284978 0.802149 -0.38463107 0.5117147 0.7351056
-0.8353187 -0.7068336 -0.70944333 0.63970065 -0.7741816 -1.1857418 -1.1086189 -1.3940928
-1.7298269 -1.5100713 -1.061279 -1.3823575 -1.1611252 -1.0266911 -1.1854743 -1.3892217
-1.1191908 -0.9794785 -1.2595501 -1.183288 -1.3041458 -1.3167007 -1.129489 -0.9290655
-0.74422795 -1.2462254 -1.302156 -1.043428 -1.2442268 -1.1826297 -1.03878 -1.2195256
-0.78072494 -1.4001276 -1.195129 -1.2255682 -0.9898582 -1.3551345 -1.512359 -0.9400992
-1.0157437 -1.1619544 -0.85702074 -1.0488974
00000000: 03a7 2d3f 9730 243f 023a e6bd db3d 183f
00000010: 1e31 193f cc4c 473f 184e 9cbf 0a8e 2ebf
00000020: 1f22 84bf 56dd e2be 75bd 44bf 655a 4fbf
00000030: e9e6 513f 8c12 343f 40d8 8fbf 7642 013d
00000040: 63f0 95bf 66f9 8a3f 6c84 55bf dc2c 443f
00000050: 63cf 2bbe 31d1 89bf f5d3 d3be f7b4 d5be
00000060: 973d c53e 0598 6cbf 2bf2 3b3f 56aa 0abf
00000070: 89f9 503f e9db b63e 9f1d 153f 7c28 4fbf
00000080: 3a3d 51bf f1c3 2c3e 1177 09be ab1f a6bf
00000090: 6ad4 f03e 75a6 373f 0c46 303f 1a19 8fbf
000000a0: d251 4a3f f9ab 053f fd72 ebbe d001 6ebf
000000b0: 21dc 68bf efb3 f93e 267e 2f3f ffc1 11bf
000000c0: a6c4 563f e8ab a4bd f915 2bbe 3be5 203f
000000d0: a359 4d3f 5dee c4be bcff 023f e12f 3c3f
000000e0: 72d7 55bf 0cf3 34bf 149e 35bf 6cc3 233f
000000f0: c430 46bf 63c6 97bf 39e7 8dbf a271 b2bf
00000100: f86a ddbf 044a c1bf fed7 87bf 17f1 b0bf
00000110: c09f 94bf 9d6a 83bf 9fbd 97bf 04d2 b1bf
00000120: a541 8fbf 1abf 7abf f038 a1bf fb75 97bf
00000130: 40ee a6bf a689 a8bf 1893 90bf 3dd7 6dbf
00000140: b985 3ebf 5084 9fbf 0cad a6bf 0c8f 85bf
00000150: d342 9fbf 6960 97bf bef6 84bf 6a19 9cbf
00000160: 97dd 47bf 6237 b3bf fdf9 98bf 6bdf 9cbf
00000170: 5967 7dbf 0c75 adbf fb94 c1bf 57aa 70bf
00000180: e403 82bf ecba 94bf b665 5bbf 4542 86bf

classification_layer.5.bias f4 [10]
-0.3027749 0.060483128 1.0270333 1.349363 0.36373413 0.040050983 -1.6377766 -1.983654
-1.4391767 -1.682944
00000000: 5005 9bbe 28bd 773d d475 833f edb7 ac3f
00000010: 5c3b ba3e 800c 243d aaa2 d1bf 60e8 fdbf
00000020: f136 b8bf b66a d7bf
